models/best_lstm_model.pth (torch, 217064 bytes, 10 tensors)

lstm.weight_ih_l0 f4 [256, 10]
000000 11 ee 15 3f 89 7b 93 be a9 0a 2a bf 79 9e 0c 3f
       0.58566386 -0.28805187 -0.66422516 0.5492931
000010 cd 55 11 bf 73 c0 c0 be 33 2b 43 bd 47 db 76 3e
       -0.56771547 -0.37646827 -0.04764862 0.24107085
000020 ad ee 1f be a7 bd b7 3e 15 be c6 bd fa 81 3b bd
       -0.15618391 0.3588688 -0.09704224 -0.045778252
000030 16 b8 ff 3d fc 52 53 3f 1d d6 af be d5 31 a7 bd
       0.124862835 0.825485 -0.34343043 -0.081638016
000040 a8 60 1c 3f 4c f0 06 3e 1e ff ad be d6 df 17 be
       0.61084986 0.13177603 -0.339837 -0.1483148
000050 88 58 ec 3e cd 8c 9a 3c 8b 9d 00 bf 6a f8 85 3d
       0.46161294 0.018865967 -0.5024039 0.06541522
000060 7a 6f 9c be dc f3 f9 bc 0c 71 b8 be 44 e3 94 be
       -0.305538 -0.030511789 -0.36023748 -0.2907964
000070 68 7d 1c 3f fe 85 a2 3e d3 55 3c be b0 e2 90 be
       0.61128855 0.31742853 -0.18392114 -0.2829795
000080 9f 03 07 be 93 8a 12 3f fc 17 e2 be aa 95 cb bd
       -0.13184975 0.572427 -0.44158924 -0.099406555
000090 61 fc 90 3e 6a b5 3d 3e ee 7c b0 3d 24 1f a9 be
       0.2831755 0.18526235 0.086175784 -0.3303157
0000a0 7d 0c 06 3f 5d 05 19 bf cf 82 d3 be c2 98 09 3f
       0.52362806 -0.5977381 -0.41310737 0.53748715
0000b0 a5 4a c3 be 03 09 1d bf 77 8c 00 be 1a 3f 9e 3e
       -0.38142887 -0.61341876 -0.12553583 0.30907518
0000c0 2d ea 24 be 14 9a bc 3e cd f7 d0 be 20 23 6b bc
       -0.16104956 0.36836302 -0.40814057 -0.014351636
0000d0 78 d4 66 be c2 60 fd 3e 70 ad 6f be 8d c1 b8 3d
       -0.22541988 0.49487883 -0.23406005 0.09021292
0000e0 7c a2 6a be aa 84 58 bf 72 6e 8a bd 8f e4 ab be
       -0.22913545 -0.8457743 -0.06759347 -0.33572814
0000f0 81 ae 03 bf ad 0c 14 be 14 ca 56 be 61 77 01 bf
       -0.51438147 -0.1445796 -0.20975524 -0.5057278
000100 c3 84 2c 3e 0e a6 a0 bd b3 5b 78 bf 55 02 2e bf
       0.1684752 -0.078441724 -0.9701492 -0.6797231
000110 3f 99 6d be 81 f5 0a bf f1 8b 67 be 52 f9 c3 bc
       -0.2320299 -0.5428086 -0.22611977 -0.023922596
000120 a8 98 90 3e f2 45 0a bf d8 fa 3e 3e ba 67 24 be
       0.28241467 -0.5401298 0.18650377 -0.16055194
000130 18 d8 f0 be f9 e6 3f bf 1b 68 74 bd cd 90 67 be
       -0.47039866 -0.7496181 -0.059669595 -0.22613831
000140 15 f6 19 3e 94 5f 03 be 88 08 3e be 1f 93 f2 3d
       0.15035279 -0.12829429 -0.18557942 0.11844467
000150 58 cc 06 be a3 42 90 bd 27 56 fb be fe 84 4a bf
       -0.13163888 -0.0704396 -0.49089167 -0.7910918
000160 89 40 3c be 40 88 79 3e f8 23 6f 3e 85 26 14 be
       -0.18383993 0.24368382 0.23353565 -0.14467819
000170 06 ac 40 bd ea 74 dc 3e e3 c8 a8 be a9 04 42 be
       -0.047039054 0.43057948 -0.32965764 -0.1894709
000180 85 c9 3c 3e 81 ae 0d 3f 26 a4 f6 be bf 6f 2b 3d
       0.18436249 0.55344397 -0.4817211 0.041854616
000190 6b a4 23 be 43 18 cf be 0e 4c 52 be 45 bc df 3e
       -0.15980689 -0.40448198 -0.20536825 0.43698326
0001a0 a5 c4 bb be 34 e6 05 bf c8 6f ca be 03 b8 f3 3e
       -0.36673465 -0.5230439 -0.39538407 0.47601327
0001b0 8a 4d 8b be 96 a6 09 be d4 a4 bd 3d 5e aa 98 be
       -0.27207595 -0.13442454 0.09259954 -0.2981748
0001c0 22 c1 ac be 42 ad a2 3c 31 e0 a8 be e6 05 bb be
       -0.337411 0.019858006 -0.32983544 -0.36527938
0001d0 89 2e f3 bd 53 71 15 3c cf 9e ba be 61 45 17 be
       -0.1187411 0.009121257 -0.36449286 -0.1477256
0001e0 b1 71 24 3c 8c 8c 8f be 25 bc 82 be 34 40 02 3f
       0.010036872 -0.28036916 -0.25534168 0.50879216
0001f0 86 41 03 bf 7f da 9d be 4a 6a a6 be ec cd 9e 3e
       -0.51271856 -0.30830762 -0.32502967 0.3101648
000200 90 dc af be 7d 6e 51 bd 24 91 91 3d 25 e6 fd 3e
       -0.34347963 -0.05113076 0.071077615 0.4958965
000210 01 7c 37 3e 20 05 93 3e 93 2c 0f bc 19 a9 d1 3e
       0.17918397 0.28714848 -0.008738655 0.40949324
000220 61 5d df 3d 7c 18 ae bd 34 e7 c5 3d 9c 3c ba bd
       0.109064825 -0.08500764 0.09663239 -0.090935916
000230 17 ec 22 3d 2f 73 7b be b2 37 d6 bd b7 a2 c5 bd
       0.039775934 -0.24555658 -0.10459842 -0.09650176
000240 f9 07 ee bd 7f 5b f8 bd 5a e1 3d 3f 97 39 c8 be
       -0.116226144 -0.121268265 0.74171984 -0.39106438
000250 3b 02 ba 3e 16 ab 9c bd ac 7d 11 bd 2f e1 c0 3d
       0.36329827 -0.076498196 -0.03552024 0.0941795
000260 54 b3 0f 3f 3c 64 03 be 1c e2 cc 3e 72 89 68 3d
       0.5613301 -0.12831205 0.40016258 0.056771703
000270 13 3d 3f 3f 6d c4 2c 3e 61 bc 82 bd f7 8f 0f be
       0.74702567 0.16871805 -0.06383587 -0.14019762
000280 98 bb 1b 3e 42 ed 46 3f 1c bb d3 3e 04 c4 2d be
       0.1520828 0.77705777 0.4135369 -0.16969305
000290 be db 8d 3e a1 da 3b 3f 1b 1c d4 bd 87 62 e1 3c
       0.27706712 0.73380476 -0.10356923 0.027512802
0002a0 a5 35 6b 3d 1c b5 d0 bd e5 7a 09 bf 40 61 9c be
       0.057424206 -0.10190794 -0.5370315 -0.30542946
0002b0 d7 3c 81 be b4 7d c9 3e aa 7a e9 be 70 d7 ae be
       -0.2524173 0.39353716 -0.45601398 -0.3414874
0002c0 78 f5 e7 3d 95 a1 e9 be ad e7 22 3e b1 b5 1b bf
       0.11326116 -0.4563109 0.1590869 -0.60824114
0002d0 30 33 14 bc d8 42 f3 3e 2d a6 55 3f a5 ed f6 be
       -0.009045407 0.47511935 0.8345669 -0.48228183
0002e0 07 d6 2e 3f 54 23 f6 3e 88 35 25 3e de 1b 22 be
       0.6829533 0.48073828 0.16133702 -0.15830943
0002f0 31 24 10 bf 05 e8 b2 bc 64 22 96 bc ee 0a 8c 3e
       -0.56305224 -0.021839151 -0.018326946 0.2735209
000300 21 e0 ef 3e d0 ad 8d be b6 26 c2 3e b0 16 92 3e
       0.46850684 -0.2767167 0.3792016 0.28532934
000310 04 51 db 3d 55 a6 56 bf 29 28 91 3d a9 36 7e 3d
       0.10708812 -0.8384755 0.07087738 0.062063847
000320 93 60 2a bf 63 a1 04 3e 2f cb 3a 3f e1 8b c3 be
       -0.6655361 0.12952189 0.72966284 -0.38192657
000330 b6 96 05 3f a3 10 e0 3d fa fc ff 3e 4a 5e af bd
       0.5218309 0.10940673 0.49997693 -0.08562906
000340 55 3f 4d bf 33 d4 03 bf dd d7 63 be 26 c4 3a be
       -0.8017476 -0.51495665 -0.22250314 -0.18238887
000350 24 d8 24 bf 28 41 40 3e 3a 1a d3 be 7b 07 f2 bd
       -0.64392304 0.18774855 -0.41230947 -0.11817833
000360 03 3b af bd 9a 98 8f bf 24 e1 e5 be 49 c5 aa be
       -0.085561775 -1.1218445 -0.4489833 -0.33353642
000370 98 31 2b be 2e d9 32 3d f9 71 ca bd fb e6 69 be
       -0.16718137 0.04366415 -0.0988502 -0.22842018
000380 c9 bb 0f bd af b4 53 3d ac 62 d5 be 19 a2 50 3f
       -0.035091195 0.051685985 -0.41676843 0.8149734
000390 f3 b8 83 be c6 3f 51 be 42 93 3f 3b 6a d6 f8 3d
       -0.25727043 -0.20434484 0.002923206 0.12150271
0003a0 c2 3a 6c 3e 82 a8 21 bf fa 3f 0b 3f 8a fb 74 3d
       0.2306929 -0.6314775 0.54394495 0.0598102
0003b0 bc c6 9d be 5d 6d 6a bf 49 85 47 3e cd 0b ee 3c
       -0.30815685 -0.91573125 0.19484438 0.029058361
0003c0 0b 58 dd bd 8a e2 e6 be b5 2f 93 be 43 ef a8 be
       -0.108078085 -0.4509471 -0.28747335 -0.32995042
0003d0 9d 00 22 bc d4 43 f2 be 76 80 0e bf 61 2c 34 3f
       -0.0098878415 -0.47317374 -0.55664766 0.70380217
0003e0 a9 4f 1f be 5b 63 c8 bd 39 fb 9a 3e ea d7 f3 bd
       -0.15557732 -0.097845756 0.30269793 -0.11906417
0003f0 7b 94 9b 3e b5 38 0d bf 2f 3d c2 3e 94 8f 16 be
       0.3038672 -0.55164653 0.37937304 -0.14703208

lstm.weight_hh_l0 f4 [256, 64]
000000 56 17 81 bd b6 f0 b2 3d 26 7d a9 3d 00 55 a4 3c
       -0.06303279 0.08737318 0.08275823 0.020060062
000010 dc 74 6b bd 38 1d d9 3c 00 3e af 39 e2 e1 e9 3d
       -0.057484493 0.02650319 0.00033424795 0.11420037
000020 d8 bf 97 3c 00 f6 1d 3c 10 00 0c 3c c0 31 88 3d
       0.018524095 0.0096411705 0.008544937 0.06650114
000030 00 70 ca ba d0 6d db 3d 98 5f 85 3d c6 70 c1 bd
       -0.0015444756 0.107143044 0.06512374 -0.09445338
000040 00 00 c0 b5 68 4b d9 bd 1a 8f c4 bd c8 f4 c6 3c
       -1.4305115e-06 -0.10610086 -0.09597607 0.024286643
000050 a8 1c e6 3c a0 39 33 bc 82 51 f3 3d b6 86 89 bd
       0.028089836 -0.010939032 0.11880781 -0.06715147
000060 68 92 56 bd 38 fd a3 bc 00 ad 46 3a 70 78 2d bc
       -0.052385718 -0.020018205 0.00075788796 -0.010587797
000070 e2 7f e6 3d c8 3d 58 bd 3e e8 85 bd 90 06 30 3c
       0.112548605 -0.052793294 -0.06538437 0.010743752
000080 ec 46 c0 3d 58 0d f3 3c 60 ea 89 3d 38 3b c6 3c
       0.09388527 0.029669449 0.067341566 0.02419816
000090 94 2f da 3d 78 c2 99 3d 84 2f b7 3d 30 ec 89 bc
       0.10653606 0.07507795 0.0894461 -0.016836256
0000a0 f6 f0 d3 bd e0 df 72 bd 14 6c 2e 3d 90 98 b3 3d
       -0.10348694 -0.059295535 0.04258354 0.08769333
0000b0 68 0a 48 bd bc d1 d3 3d f8 2c 93 3c 00 28 02 3a
       -0.04883805 0.10342738 0.017965779 0.0004965067
0000c0 20 ae 9f 3b a8 e9 b4 bc 0e aa ef 3d e0 e8 b1 3b
       0.0048730522 -0.022084072 0.11702357 0.005429372
0000d0 62 cd 9c 3d 4a 11 d8 bd 86 e5 83 bd 30 45 66 3c
       0.07656361 -0.105501726 -0.064402625 0.0140545815
0000e0 7a 6a cc 3d b8 c1 73 3d d0 07 c3 3c 04 ed fc bd
       0.09981246 0.059510916 0.023807436 -0.12349895
0000f0 80 01 1a 3b 6c fc a8 bd 5a 97 da bd 78 06 8c 3c
       0.002349943 -0.08251271 -0.10673399 0.017092928
000100 fa f8 a1 bd 0a 5b e8 3d 8e 25 8b bd 54 00 25 3d
       -0.07908817 0.11345489 -0.06794272 0.040283516
000110 32 43 96 3d 04 f9 c6 bd 04 04 83 3d 10 1c 89 bc
       0.07337035 -0.09715465 0.0639725 -0.016737014
000120 50 a6 84 3d 76 bd f7 3d 5c 32 5a bd cc bf 5d bd
       0.06477034 0.12096684 -0.053270683 -0.05413799
000130 94 67 cb 3d 10 bd 63 3c b0 40 4c bc 16 38 c2 3d
       0.09931865 0.0139000565 -0.012466595 0.09483354
000140 a8 5e 77 bd a0 3e ca bb 18 d7 af 3d 60 18 48 3d
       -0.060393006 -0.0061720163 0.08585948 0.04885137
000150 a8 95 a5 bd c8 13 05 3d 0e 2f c3 bd dc 06 8b bd
       -0.08085185 0.032489568 -0.09530459 -0.06788418
000160 6c 9c a4 3d 4c 74 08 bd 3a 65 82 bd c0 2a 11 3c
       0.080376476 -0.033314034 -0.06366964 0.00886029
000170 38 3c fa 3c 48 22 9f bd 14 a3 ac bd 98 ed f7 bd
       0.030546293 -0.077702105 -0.08429542 -0.12105864
000180 d8 4a 04 3d c2 2d a5 bd 20 13 1c 3c a8 06 e5 bc
       0.03229794 -0.08065368 0.009526044 -0.027957276
000190 5e 63 a7 bd ec 60 23 bd de c8 c4 bd 5c 82 87 bd
       -0.0817325 -0.039887354 -0.09608625 -0.06616661
0001a0 c0 5a 7f bb b8 db da bd 42 85 e0 bd 6e c2 bf 3d
       -0.0038964003 -0.10686439 -0.10962917 0.093632564
0001b0 80 b6 40 3c 18 6f 62 bd c0 2f 88 bb 36 d7 bd 3d
       0.011762261 -0.05528173 -0.004156083 0.09269564
0001c0 6e 92 d5 bd 1c ba 87 bd bc 1f b9 bd 40 e4 14 bc
       -0.1042832 -0.066272944 -0.09039256 -0.009087622
0001d0 80 f4 8c bb 96 80 c7 bd 7c af b1 3d 64 96 c4 bd
       -0.0043016076 -0.09741323 0.08676049 -0.09598997
0001e0 c0 02 ef 3d f4 38 b0 bd a8 55 8c bc 80 79 bf 3c
       0.116704464 -0.08604613 -0.017130688 0.023373365
0001f0 8c 92 63 bd a8 6d eb 3d c4 7e b0 bd e0 08 e3 bb
       -0.05555968 0.11495525 -0.086179286 -0.006928548
000200 88 f8 bb bd 5c 20 0e 3d 26 43 da 3d 48 76 ed 3d
       -0.09178263 0.03469883 0.10657339 0.11594826
000210 30 20 73 3c 4a 2a 80 bd d6 ca f8 3d d0 d7 18 3c
       0.014839217 -0.06258066 0.12148063 0.009328797
000220 26 34 ad 3d 8a f8 84 bd a4 9d 6d bd 9e 83 d4 bd
       0.08457212 -0.064927176 -0.058011666 -0.103766665
000230 60 8d eb 3d 90 dd a9 3c 42 db b7 bd 80 e6 2f 3c
       0.115015745 0.020735532 -0.08977367 0.010736108
000240 74 99 5b bd 20 9f cc 3b d0 f1 29 3d 7c 12 7e bd
       -0.05361314 0.006244555 0.041490376 -0.062029347
000250 f8 af b2 3c 3a a2 a1 bd 08 52 c5 3c 64 2d f7 bd
       0.021812424 -0.078922704 0.024086967 -0.120692044
000260 08 2d a3 3c 46 57 fe 3d 0a ce eb 3d 98 c4 3a 3d
       0.019918934 0.1241899 0.11513908 0.045597643
000270 52 5f bc 3d e4 e5 f8 3d c8 15 11 3d e4 c2 2a 3d
       0.091978684 0.12153223 0.035421163 0.04168977
000280 a8 27 85 3c f8 a4 e2 3d 16 ea db 3d f8 c5 70 bd
       0.016254261 0.110666215 0.10738008 -0.058782548
000290 80 62 a8 bb de fb 80 bd 9c b8 37 3d d8 0f f8 bd
       -0.0051386952 -0.0629804 0.04485379 -0.12112397
0002a0 38 2e 35 3d 80 84 0c bd 88 ad 39 3d 64 cc 1f 3d
       0.04423353 -0.03430605 0.045331508 0.03901328
0002b0 e4 c7 7e bd c6 d0 84 3d bc 6b 59 3d 46 9c d9 bd
       -0.06220235 0.06485133 0.05308126 -0.1062551
0002c0 ac 6c ff 3d 52 5a dc 3d 56 47 9f 3d 30 df 4f bc
       0.124718994 0.10759415 0.07777278 -0.012687489
0002d0 34 65 35 3d fe 7f 8a bd 28 fa 2d bd 90 a4 71 3d
       0.044285968 -0.06762694 -0.042474896 0.05899483
0002e0 10 ed 63 3d 94 be 4a 3d 28 28 f4 bd 50 24 d4 3d
       0.055646002 0.049498156 -0.11921722 0.103584886
0002f0 0c db 55 bd ea 8b dd 3d 76 ee d2 3d f0 c5 3d 3d
       -0.052210853 0.10817702 0.10299389 0.046331346
000300 dc 0c ff 3d 1a 00 93 3d ee 23 96 3d 68 dc 2d bd
       0.124536246 0.07177754 0.07331072 -0.042446524
000310 b0 6f ed 3d 4c 31 06 3d 02 41 97 3d d0 88 e7 bc
       0.11593568 0.032761857 0.07385446 -0.02826348
000320 8a 66 b9 3d 20 19 e3 3d 0c 29 c4 bd b0 de d1 3d
       0.09052761 0.110887766 -0.095781416 0.102475524
000330 10 30 a9 bd ca 3f b0 bd 7e ef d5 bd 88 f2 13 3d
       -0.0826112 -0.08605917 -0.1044607 0.036119968
000340 38 36 c0 bd f0 bb 40 bd 04 b0 80 bd 00 d7 08 3d
       -0.093853414 -0.04705423 -0.06283572 0.033408165
000350 b2 54 fb bd d4 b8 6a bd 00 b7 6f 3a 30 ea 37 3c
       -0.12272014 -0.057305172 0.00091443956 0.011225268
000360 50 3b 67 bd 58 6e 37 3d a4 e5 a8 bd c4 cd d8 bd
       -0.05645305 0.044782966 -0.082469255 -0.10586122
000370 b0 93 91 bc ee 67 8a bd 84 5d a1 3d 16 fb ae bd
       -0.017770618 -0.06758104 0.07879165 -0.085439846
000380 30 ef 2b bc 3c a9 54 3d 6e 30 e0 bd b8 2c c6 3d
       -0.010494038 0.051919207 -0.10946737 0.09676498
000390 dc a3 68 bd d4 52 0b bd 46 99 9c bd 60 ca 3e bd
       -0.056796893 -0.034014538 -0.07646422 -0.04657972
0003a0 00 6c 45 bd f8 ce e3 bd 4c f4 2e 3d 00 f2 d1 b9
       -0.0481987 -0.111234605 0.04271345 -0.0004004389
0003b0 54 6d fa 3d 96 b7 ac 3d 00 b4 de 3d e0 a4 16 3d
       0.12227884 0.08433454 0.10874176 0.03677833
0003c0 7e 84 86 3d ea b6 ef 3d a6 2f d2 3d ca b5 c4 bd
       0.0656824 0.1170481 0.102629945 -0.09604986
0003d0 40 9c e5 bc 2c e7 f6 bd 80 f4 9a 3b 48 d5 34 bd
       -0.028028607 -0.12055811 0.0047288537 -0.044148713
0003e0 c8 2f de 3d 58 e6 a1 3c 00 52 b4 3a a0 2d b9 bd
       0.10848957 0.019763157 0.0013757348 -0.090419054
0003f0 20 e4 c8 bd b8 33 a1 3c 54 67 7e bd 24 23 6b bd
       -0.098091364 0.019677982 -0.06211026 -0.05740656

lstm.bias_ih_l0 f4 [256]
000000 cf 5a df 3e b2 83 48 3f 3f f1 5e 3f a5 c6 57 3f
       0.4362397 0.7832595 0.8708686 0.8428748
000010 72 bc 42 3e 7a 68 60 3e e7 6f 19 3f c9 b8 84 3f
       0.19017199 0.21914855 0.59936374 1.0368892
000020 0c ac 00 3f 25 3f 14 3f c2 03 4a 3f c1 5a 2d 3f
       0.5026252 0.5790885 0.78911984 0.67716604
000030 c1 21 34 3f 46 ae 70 3e c2 9b 29 3f f8 07 9a 3e
       0.70364004 0.2350398 0.6625329 0.30084205
000040 cc d8 a5 3e 5d cc 5b 3f 2f 99 21 3f dd 7c 72 3e
       0.32391965 0.8585871 0.63124365 0.23680444
000050 58 98 a2 3e 76 61 44 3f c3 4f d6 3e cf cf ee 3e
       0.31756854 0.76711214 0.41857728 0.4664292
000060 7c 75 c7 3e d9 e4 ca 3e f5 07 db 3d 24 1e e0 3e
       0.3895682 0.39627722 0.10694877 0.43772995
000070 4e fa 1f 3f 4d 3c 56 3f 96 6d dd 3e 19 b8 0a 3f
       0.6249131 0.8368576 0.4324767 0.5418716
000080 85 61 55 3f 33 f0 af 3e 21 41 bb 3e ff 2b e3 3e
       0.8335193 0.34362945 0.36573127 0.44369504
000090 0d 83 08 3f 10 01 c1 3e cd d1 ed 3e 25 4f c2 3e
       0.5332497 0.37696123 0.46449128 0.37951007
0000a0 65 82 25 3f d8 c7 86 3f 29 dd 15 3f cf 38 25 3f
       0.6465209 1.0529737 0.5854059 0.6453981
0000b0 ff 06 03 3f 99 ad 34 3f a5 1a 3a 3f 77 7b 28 3f
       0.5118255 0.7057739 0.72696906 0.6581339
0000c0 15 31 08 3f 78 78 03 3f fd 06 a1 3e e9 b5 27 3f
       0.53199893 0.51355696 0.31450644 0.6551195
0000d0 80 06 36 3f 88 29 5a 3f a6 77 09 3f 63 2d 8f 3e
       0.7110367 0.8521962 0.53698194 0.27964315
0000e0 e8 1d 80 3e 79 56 3a 3f fa da e9 3e 8f da b3 3e
       0.25022817 0.72788197 0.45674878 0.35127684
0000f0 cd 99 05 3f 24 86 22 3f c2 73 5a 3f 38 3e f2 3e
       0.52187806 0.6348593 0.8533288 0.47313094
000100 48 11 85 3d 26 89 90 bd 94 d4 4d 3d 1c 3f e0 3d
       0.06497437 -0.07057409 0.05025156 0.10949537
000110 18 98 25 3d 80 26 fc 3a 62 bb ce 3d 80 83 d2 bd
       0.04042825 0.0019237548 0.10094334 -0.10278988
000120 ca 84 90 3d f0 41 c6 bc 38 f9 eb bd 56 86 8f 3d
       0.070565775 -0.024201363 -0.11522144 0.070080444
000130 10 c7 cc bc b0 0a e6 bc d0 0e 6a bd 44 0f 29 bd
       -0.024997264 -0.028081268 -0.057143033 -0.041274324
000140 10 68 9d bc 5e 5f fb bd f8 fd 78 3d 80 36 84 3c
       -0.01921466 -0.12274049 0.06078908 0.016139269
000150 40 23 3e 3d 78 bb fe 3d b0 81 e4 bc 5a a3 99 bd
       0.046420336 0.124381006 -0.027893871 -0.0750186
000160 ee 3b a6 bd 20 1f 8d bc 88 56 c7 bc 84 4f 36 3d
       -0.081168994 -0.017226756 -0.024333254 0.044509426
000170 00 9d 11 3c d4 97 2a 3d 86 74 82 bd 1a 6b dc bd
       0.008887529 0.0416487 -0.06369881 -0.107626155
000180 20 bd 98 3b 60 98 d8 3c 54 e9 74 bd 48 b7 36 bd
       0.0046612173 0.026439846 -0.05979283 -0.044608384
000190 d0 94 b4 bc 82 e8 e4 bd b4 f0 ee 3d ea 6f b8 3d
       -0.022043616 -0.1117716 0.11667004 0.09005721
0001a0 98 e7 ba bd 4e f2 f3 bd b6 e6 de 3d 98 8c d4 3d
       -0.09126204 -0.1191145 0.10883848 0.10378379
0001b0 6a e6 e5 bd 58 11 d9 3c ca 9e a2 bd fe 6f bc bd
       -0.112255886 0.026497528 -0.07940443 -0.09201048
0001c0 38 15 b2 bd 00 67 80 3b 70 6c ec 3d 84 ac 6e 3d
       -0.086954534 0.0039185286 0.1154412 0.058269992
0001d0 54 68 ec bd 72 08 8a 3d fa 59 e8 3d 66 a9 b4 3d
       -0.115433365 0.06739892 0.11345287 0.08821373
0001e0 d8 83 ec 3d c8 da 94 bd bc 47 82 bd 94 40 8e 3d
       0.11548585 -0.07268292 -0.063613385 0.06945911
0001f0 a2 a8 c9 bd 80 cb 10 bd e4 c2 b7 3d 28 49 1d 3d
       -0.09846617 -0.035350323 0.08972719 0.038399845
000200 d8 3a 78 be 09 57 ab bd 6b ec 03 be 88 78 09 3d
       -0.24241197 -0.0836621 -0.12883155 0.033562213
000210 1f 0e 8a 3e f4 d3 79 be 3d 72 70 3e b6 49 a2 3e
       0.269639 -0.2439726 0.23481078 0.31696862
000220 2f c7 bb 3d ba f3 a5 3e d2 75 54 3e 57 3a aa 3e
       0.09168851 0.3241251 0.2074807 0.33247635
000230 8b 58 cb be 67 37 47 3e 6c 5f 8a be e0 03 17 3d
       -0.3971599 0.19454728 -0.27025926 0.03686893
000240 c7 c0 5a bd 12 85 f3 bc 8c 44 33 3e 6d 89 ce 3e
       -0.053406503 -0.029726539 0.17506617 0.40339223
000250 5e 24 f8 bc 83 2c 1a bd 97 37 a2 be 7c 6c c8 be
       -0.030290779 -0.037640106 -0.31683037 -0.39145267
000260 e2 f8 82 be ab 6e 9a 3e fd d0 ec bc b4 19 84 be
       -0.25580508 0.30162558 -0.028908247 -0.2580086
000270 49 8f bb 3e 21 44 cd 3d 69 64 f9 be 43 c4 bd bd
       0.36632755 0.1002276 -0.4870942 -0.092659496
000280 1d 76 73 3e b8 3a 9e 3e 98 5d c6 be c0 c3 97 be
       0.23775525 0.30904174 -0.3874328 -0.29641533
000290 8a 7d ae bc 13 0e 6c be fb a6 cc 3e 44 0b fb 3d
       -0.021300096 -0.23052244 0.39971146 0.12258008
0002a0 bd 95 2f be b6 8e 17 3d 87 da ae 3d b3 f4 d4 3d
       -0.17146964 0.037001334 0.085377745 0.10398235
0002b0 c9 8f 59 be 97 10 fa 3d 50 a6 4b bd 50 94 19 3e
       -0.21246256 0.122101955 -0.049719155 0.14997983
0002c0 f7 26 e9 be 2f a1 bf 3e fd 50 87 3c dc 2d ea bd
       -0.4553754 0.3742766 0.01651811 -0.11434528
0002d0 36 b9 e4 3e bd fb e4 be d5 36 d3 3e 8b ac 8a be
       0.44672555 -0.4472331 0.4125277 -0.27084765
0002e0 fc 14 28 3e 6b 3b 5c be db d8 87 be 0f 21 45 3e
       0.16414255 -0.21507041 -0.26532635 0.19250892
0002f0 29 17 ca 3e 1e cb 23 3e 59 b3 b4 be c6 d4 a2 3e
       0.39470795 0.15995452 -0.3529308 0.31802958
000300 b0 14 e5 3e 65 d4 53 3f c4 6b 3e 3f 34 6c 5c 3f
       0.44742346 0.82745963 0.7438319 0.86102605
000310 85 c6 b5 3e f7 36 b5 3e b9 61 0d 3f c2 e7 96 3f
       0.3550302 0.35393497 0.5522724 1.1789477
000320 d3 68 0e 3f 22 a8 3c 3f e9 95 4b 3f 4f f6 37 3f
       0.556287 0.7369405 0.7952562 0.7186021
000330 96 8a 1e 3f 53 0a 15 3e 18 58 32 3f ec 9c b5 3e
       0.61930215 0.1455472 0.6966567 0.35471284
000340 39 f3 ad 3e 4c 69 45 3f af 80 29 3f 47 e3 ce 3e
       0.33974627 0.77113795 0.6621198 0.40407774
000350 0c 7d 86 3e 50 6c 0a 3f c4 71 c2 3e 0f 0f 0c 3f
       0.26267278 0.5407152 0.3797742 0.5471048
000360 28 22 0c 3f fd 7d 0b 3f 2f de 66 3d 00 22 09 3f
       0.5473962 0.5448912 0.056364235 0.53567505
000370 23 4c 3a 3f 78 15 6d 3f ac 12 aa 3e 3f e7 e5 3e
       0.72772425 0.92610884 0.3321737 0.4490299
000380 20 7e 4d 3f 3f 6f c0 3e 6b 9a 16 3f b8 bf f6 3e
       0.80270576 0.37584874 0.58829373 0.48193145
000390 9b d1 f5 3e 4f 2f b9 3e 3e 07 c2 3e cd fb a7 3e
       0.4801148 0.36168906 0.3789615 0.32809296
0003a0 cf c7 1d 3f b5 e7 8b 3f 5b 0a 0d 3f 61 d0 19 3f
       0.6163301 1.0930086 0.55093926 0.60083586
0003b0 32 d5 e9 3e 3f 23 2e 3f 6d f9 3e 3f 4e 3f 30 3f
       0.45670468 0.6802253 0.74599344 0.68846595
0003c0 3f 7b cd 3e 42 7c ae 3e 24 16 c1 3e 0c 08 d1 3e
       0.40133092 0.34079176 0.37712204 0.40826452
0003d0 ff f8 0a 3f 64 f6 2c 3f dd 65 be 3e 36 d1 38 3e
       0.5428619 0.6756346 0.3718709 0.18048558
0003e0 42 93 a2 3e 33 7e 49 3f e4 97 0f 3f b1 c6 b3 3e
       0.31752974 0.7870819 0.5609114 0.35112527
0003f0 ec dc 0a 3f ad f8 28 3f e6 7b 30 3f 16 81 e0 3e
       0.5424335 0.6600445 0.68939054 0.43848485

lstm.bias_hh_l0 f4 [256]
000000 d9 62 16 3f e1 27 44 3f 8d 48 50 3f 81 67 4f 3f
       0.5874458 0.7662335 0.81360704 0.8101731
000010 5e 89 bb 3e 2e 1d 96 3e cc b6 f9 3e 1d 97 8c 3f
       0.3662824 0.29319137 0.48772275 1.0983616
000020 ce 96 e2 3e d1 8f 24 3f 95 23 3c 3f 85 2e 2d 3f
       0.4425568 0.64281946 0.73491794 0.6764911
000030 45 6a 1f 3f 5e c8 89 3e f6 47 37 3f 5a bc a6 3e
       0.6227153 0.2691068 0.7159418 0.32565576
000040 90 6f 91 3e f1 fb 2d 3f 03 ef 2c 3f 4c d5 f1 3e
       0.28405428 0.6796256 0.675522 0.47233045
000050 8a 38 95 3e 26 16 31 3f 99 49 50 3e b7 97 ca 3e
       0.29144698 0.6917442 0.20340575 0.39568874
000060 ba b0 cf 3e b5 12 b6 3e 27 9a ee 3d b2 dc 1e 3f
       0.4056452 0.35561147 0.11650496 0.62055504
000070 06 14 28 3f 77 c2 54 3f dc cc a0 3e f3 1f 10 3f
       0.65655553 0.8310923 0.31406295 0.5629875
000080 8b ff 39 3f 83 cd 66 3e 57 cb e2 3e d9 95 e8 3e
       0.7265555 0.22539334 0.4429576 0.45426825
000090 37 b9 2c 3f 22 1f cd 3e 7a 56 20 3f 80 e6 74 3e
       0.67470115 0.40062815 0.6263195 0.23916054
0000a0 1b 55 24 3f 82 2e 87 3f 71 61 e3 3e c0 76 09 3f
       0.6419236 1.0561068 0.4441028 0.53696823
0000b0 a9 93 09 3f f9 86 59 3f b7 e3 39 3f ff bd 0f 3f
       0.53740937 0.84971577 0.7261309 0.56149286
0000c0 1b 65 10 3f 34 a4 b1 3e 89 80 a9 3e 05 50 0d 3f
       0.56404275 0.3469559 0.33105877 0.55200225
0000d0 1a e8 20 3f 1a 40 32 3f 77 e4 ba 3e b3 80 a7 3e
       0.6285416 0.6962906 0.3650243 0.32715377
0000e0 3e 89 6a 3e 0f 68 4b 3f 0d 91 05 3f 56 a7 f9 3e
       0.22903916 0.79455656 0.52174455 0.4876048
0000f0 d5 e0 02 3f 58 fa 1e 3f e0 0e 26 3f 7c 5a bd 3e
       0.51124316 0.62100744 0.6486645 0.36983097
000100 64 78 de bd c0 ef 6b bb 6c 51 9e bd 58 dc aa 3d
       -0.108628064 -0.0036001056 -0.07730374 0.083428085
000110 a8 66 73 bd 90 1c 2e 3c 84 6c d8 3d 78 4c fc bd
       -0.059424073 0.010626927 0.10567573 -0.12319273
000120 08 34 53 3d b6 10 da bd 30 1b 78 3d 5c 29 06 bd
       0.051563293 -0.106477186 0.060572803 -0.032754287
000130 5c a8 db bd 38 bd a8 3c 10 8b 15 3c 88 1e 32 3d
       -0.107254714 0.020598039 0.009127393 0.043486148
000140 2e 82 99 3d 90 6a 53 bc c0 6f 6d bd 4e 32 fa 3d
       0.07495533 -0.012903824 -0.0579679 0.12216626
000150 dc 1c 1e bd 82 07 db 3d 56 b5 aa 3d d4 10 fb bd
       -0.03860174 0.106947914 0.08335368 -0.12259069
000160 ec 43 14 bd 10 4c 04 3c d8 26 cd bd b0 0b af 3c
       -0.036197588 0.008074775 -0.100171745 0.021367878
000170 24 a2 53 bd bc 5f 83 bd e0 8a be 3d 70 20 5c 3d
       -0.0516683 -0.06414744 0.09303832 0.053741872
000180 0c c6 fe 3d 20 79 d1 bc 30 9f 11 bd b8 80 a3 bd
       0.12440118 -0.025570452 -0.035552204 -0.079835355
000190 60 b1 67 3c c0 da c8 3d 90 27 60 bc d4 5e 31 bd
       0.014141411 0.09807348 -0.013681307 -0.043303326
0001a0 da a3 a3 3d e0 d5 8e 3b 48 70 91 3c 9c 3f f1 3d
       0.079902366 0.004358992 0.017753735 0.11779711
0001b0 e8 30 f5 3d 2e c2 f4 3d 4e 42 e7 bd 70 e5 ad 3c
       0.11972219 0.11951099 -0.112919435 0.021227568
0001c0 d2 25 d0 3d 68 f7 e2 3d 0a 2a de bd 4c d2 bc 3d
       0.10163464 0.11082345 -0.10847862 0.092197984
0001d0 1c 90 6c bd 7c 34 80 bd 7e 31 90 bd f6 13 88 bd
       -0.05775462 -0.062600106 -0.0704069 -0.06644432
0001e0 60 1f a0 bc 00 ee 12 bb dc 52 60 bd 46 88 a4 3d
       -0.01954621 -0.002241969 -0.05476652 0.080338046
0001f0 0c 04 93 bd 04 0f e4 3d 30 06 e7 bd 5c bb 28 3d
       -0.07178506 0.111356765 -0.11280477 0.041194305
000200 06 32 92 be f2 0b 50 be 8e ea 26 bd 96 89 96 3d
       -0.2855379 -0.20317057 -0.040751033 0.07350461
000210 42 d4 17 3e 1f 9d 43 be 8c 70 6c 3d 91 62 3f 3e
       0.14827064 -0.19102906 0.05772452 0.18689944
000220 01 9e b7 3d cc f0 77 3e 54 2a 20 3e 5f 1a f5 3e
       0.08965684 0.2421295 0.15641147 0.47871682
000230 a7 b5 8d be 26 6e a4 3e 20 2b e8 bd b9 4d ec bc
       -0.27677652 0.32115287 -0.113363504 -0.028845655
000240 1e a3 df bd 9e 3d 01 bd 87 a9 93 3e 97 09 ae 3e
       -0.10919784 -0.031552903 0.28840277 0.3399169
000250 d6 2e 06 3e 6e 45 54 3c 05 87 ad be 26 bb fa be
       0.13103804 0.012956006 -0.33892074 -0.48970908
000260 1f 91 34 be 5b 84 68 3e 6e 81 15 3d 81 b6 4d be
       -0.17633484 0.2270674 0.036500387 -0.20089151
000270 59 67 df 3e ca 25 96 3e 17 8b fe be 85 ed 00 be
       0.43633536 0.29325706 -0.49715492 -0.12590607
000280 00 31 ad 3d a0 c7 cf 3e 80 4c ce be 4e d3 e6 be
       0.08456612 0.4058199 -0.4029274 -0.45083088
000290 fd 37 11 bd 1c 76 b7 be 57 e1 eb 3e 9b e3 92 3d
       -0.035453785 -0.35832298 0.46070358 0.071723185
0002a0 f8 3d 7e bd 22 8f 9d 3c 9f 71 f2 3d 03 43 4c bc
       -0.062070817 0.01923329 0.11838078 -0.012467149
0002b0 52 fa 9a be 46 47 57 3e 50 0c 01 bd c0 53 07 3e
       -0.30269104 0.21023282 -0.031505883 0.13215542
0002c0 5b 30 f8 be 85 35 af 3e c7 f4 f0 3d 84 ec 18 bd
       -0.48474392 0.3422052 0.117654376 -0.037334934
0002d0 62 79 c9 3e 94 b0 1e bf 89 0d 9e 3e a9 d6 e3 bd
       0.3935042 -0.61988187 0.30869702 -0.111249276
0002e0 69 15 a5 3e 19 ac 69 be 0e cf e8 bd 14 91 dc 3d
       0.32242897 -0.22819556 -0.113676175 0.10769859
0002f0 cf f5 6e 3e 96 13 96 3e 4f 4e 98 be 0e 6f 5b 3e
       0.23335956 0.29311818 -0.29747245 0.21429083
000300 6e e2 f1 3e a4 f4 76 3f bc b3 4b 3f cc ea 42 3f
       0.47243065 0.9646704 0.7957113 0.7613952
000310 18 38 28 3e b7 0a ed 3e 0f f9 06 3f 78 b6 97 3f
       0.16427648 0.46297237 0.52723783 1.185256
000320 7d 39 16 3f 5a e7 0d 3f 4f 29 45 3f 3c 6a 22 3f
       0.5868147 0.5543114 0.77016157 0.6344335
000330 56 22 17 3f 63 d3 b9 3d d8 21 51 3f fe 61 a1 3e
       0.5903677 0.09073522 0.81692266 0.31520075
000340 df d4 95 3e 82 04 51 3f 8f 24 2b 3f 9f 23 a5 3e
       0.2926397 0.81647503 0.6685266 0.3225374
000350 30 5b da 3e 69 a8 07 3f 60 e3 ab 3e 9d 85 d9 3e
       0.42647696 0.5299135 0.3357191 0.4248475
000360 90 e2 0c 3f 3d fb 18 3f 8e ea bf 3c 48 62 f1 3e
       0.55033207 0.5975836 0.023427274 0.47145295
000370 e3 6c 03 3f e2 8a 76 3f 84 9b 8e 3e a3 c8 14 3f
       0.5133802 0.9630567 0.27853024 0.5811865
000380 48 84 65 3f e1 b8 d4 3e 85 5d 1c 3f f1 71 fc 3e
       0.8965497 0.415473 0.610802 0.4930568
000390 41 28 de 3e 99 f3 a8 3e 6c fb 08 3f b1 33 a5 3e
       0.43390086 0.3299835 0.5350864 0.32266
0003a0 ed 39 1f 3f 91 55 9b 3f 5c 65 13 3f ab 29 15 3f
       0.6219776 1.2135488 0.5757654 0.58266705
0003b0 bc 13 d4 3e 6d 22 27 3f 27 89 4b 3f 60 16 10 3f
       0.41421306 0.65286905 0.7950615 0.5628414
0003c0 91 77 c8 3e 13 8c 0f 3f 0a 71 a1 3e 70 47 0c 3f
       0.39153722 0.5607311 0.31531554 0.54796505
0003d0 d1 d2 2a 3f aa 99 39 3f b9 30 e1 3e d9 41 a2 3e
       0.6672793 0.725001 0.43982485 0.31690863
0003e0 ba 19 9f 3e 3b 81 57 3f 42 b3 df 3e 5e 30 c5 3e
       0.31074315 0.84181565 0.4369145 0.38513464
0003f0 62 88 b6 3e 4b 3a d7 3e 14 af 45 3f 06 0e 9a 3e
       0.35650927 0.42036662 0.77220273 0.30088824

lstm.weight_ih_l1 f4 [256, 64]
000000 13 4d d2 be d1 99 9b be cc 2e 82 bf 1c ce a9 bc
       -0.41074428 -0.3039079 -1.0170531 -0.020728163
000010 c0 c4 72 3e fc 0b 7d be 63 9c 28 3f d9 4d 4d 3f
       0.23707867 -0.24711603 0.6586363 0.8019691
000020 e0 ef ca bd 80 04 5c bf cd f0 2d 3e 06 d5 d3 be
       -0.09909034 -0.85944366 0.1698639 -0.4137346
000030 95 93 f0 3d 96 3c 63 3e 59 e7 2d 3e e0 38 bd be
       0.11746899 0.2219108 0.16982783 -0.36957455
000040 8b 67 96 bc b0 4c 97 bc 4d 3d 2a be 4e 87 c2 bd
       -0.01835992 -0.018469185 -0.16624947 -0.094984636
000050 1f 51 91 be a8 a6 1a 3f 6f d4 f1 be a2 0a 1c be
       -0.28382203 0.6041055 -0.47232386 -0.15238431
000060 ed 50 2a bf cf 79 f5 bb a5 3f 52 bf 06 c5 90 be
       -0.6652973 -0.0074913274 -0.82128364 -0.28275317
000070 ca fb 96 3d e0 03 8f 3f 1a 0f da be 32 53 af bc
       0.07372244 1.1173058 -0.42589647 -0.021401975
000080 1b 49 7c 3e b5 c6 a2 3e a6 73 27 bf 83 21 0d 3e
       0.24637263 0.31792226 -0.6541084 0.13782315
000090 8a d7 9a be 6b 0f c3 bd 76 0a e0 3e 8f f5 b8 3d
       -0.30242568 -0.09524425 0.4375798 0.090312116
0000a0 65 c7 a5 3d 89 3c 85 3e 0a 30 ce be 04 d2 5a 3e
       0.08094672 0.26022747 -0.40271026 0.21369177
0000b0 74 a2 b1 be 90 f1 32 bf e6 5a da bd 6c 19 76 bd
       -0.34694254 -0.69899845 -0.10661869 -0.060082838
0000c0 62 ab 3f 3f c2 c2 df 3e f9 0f 4d bf 27 f1 29 be
       0.74870884 0.43703276 -0.801025 -0.16595899
0000d0 1e bf c0 3e 19 aa a6 bd 83 84 ab 3e 3c 2c cb 3e
       0.3764581 -0.08137912 0.33499536 0.39682186
0000e0 8e 51 aa 3e 87 16 57 be 63 ff 7f 3e 3c f2 b8 3e
       0.33265346 -0.21004687 0.24999766 0.3612231
0000f0 6f 58 28 3e ef 99 6b bf 44 d9 36 be 10 74 36 3e
       0.16439985 -0.9203176 -0.17856318 0.17817712
000100 3e 5f 22 bf 6b 06 e2 be 80 83 65 be 9d 55 f7 be
       -0.6342658 -0.44145522 -0.22413445 -0.48307505
000110 6f 54 44 3f a1 f5 03 bf 03 29 7d 3f 6c 42 9c 3e
       0.76691335 -0.51546675 0.98890704 0.30519426
000120 a5 a2 62 3f 95 a6 3e bd 77 e4 56 be 0b bc 17 bd
       0.88529426 -0.046545584 -0.2098559 -0.037044566
000130 4a a4 79 3e 0c c8 dc 3e 5c 4e da 3c 1f 14 22 bf
       0.24379078 0.43121374 0.026648693 -0.6331195
000140 5b 9d 90 be d2 67 95 3e 96 4a 6c be 6b c3 19 3e
       -0.28245053 0.2918077 -0.23075327 0.15015952
000150 be f3 6d be 8e dc 99 be 37 82 38 bf 39 d3 9e be
       -0.23237512 -0.30051082 -0.7207369 -0.31020525
000160 f3 fe 21 bf 2b 4f df 3c 69 cc 4c bf b5 ef 38 be
       -0.63279647 0.02725943 -0.79999405 -0.18060191
000170 55 e9 f9 3e d0 ef 33 3f 06 72 4d bf f5 75 c5 bd
       0.4881083 0.702878 -0.8025211 -0.09641639
000180 b4 2d de 3c 58 ed 07 3f 22 52 68 be b9 2b f9 bd
       0.027121402 0.5309653 -0.22687581 -0.121665426
000190 64 09 cd 3c 89 50 93 be 89 c8 d8 3e 66 7f b3 3e
       0.025028892 -0.2877238 0.42340496 0.35058135
0001a0 83 0e ad 3e 38 a9 1f 3f 75 7a 3a be ab 11 14 3f
       0.33800134 0.6236758 -0.18210776 0.5783946
0001b0 05 d0 2b bf ed c0 8c bd dc 58 91 be 7a cb 42 3e
       -0.6711429 -0.06872735 -0.28388107 0.19022933
0001c0 af 65 0d 3f 02 dd 59 3f 4b 52 36 bf 55 76 a4 be
       0.5523328 0.85102856 -0.7121932 -0.3212153
0001d0 78 68 50 be 05 e9 56 be c5 4f e2 3e 87 c5 6c 3e
       -0.20352352 -0.20987327 0.44201484 0.23122226
0001e0 8a 02 16 3f ee cc 8f 3c 67 d2 cf bd cb bb c1 3e
       0.58597624 0.017553773 -0.10147553 0.37838587
0001f0 c6 0a 95 3e 4b 73 49 bf ba ed 45 bd 5f dd 53 3f
       0.29109782 -0.7869155 -0.048322417 0.8275966
000200 af 40 93 be 2b ee 05 bf bd e8 44 3e b6 6c e4 be
       -0.28760287 -0.5231654 0.19229408 -0.4461419
000210 d5 ef d3 3d 7e c3 4d bd 79 b2 a8 3e 89 b6 09 bd
       0.10348479 -0.050235264 0.32948664 -0.033621345
000220 b8 3a a1 3d e2 4b 30 be a9 67 de be 85 f0 a8 3d
       0.07872528 -0.17216447 -0.4343846 0.082490005
000230 aa 79 49 3e f1 14 3e 3e ef 4b e3 be 2c 2b 41 3e
       0.19675317 0.18562676 -0.4439387 0.18864125
000240 c1 3c 91 3d d0 45 dc 3e 61 16 c6 3e db 11 a5 3e
       0.07091666 0.43022013 0.3868895 0.32240185
000250 19 88 a2 3e 2e 8b 20 bd df c0 91 be 98 a7 c1 be
       0.3174446 -0.039195232 -0.2846746 -0.37823176
000260 68 74 18 bf a5 f6 56 3f b3 eb 93 3e e6 ac ab be
       -0.5955262 0.839701 0.28890762 -0.3353035
000270 45 3d 09 3e ac 4d 77 be 30 93 a6 be 68 c8 cc be
       0.13402279 -0.24150723 -0.3253417 -0.39996648
000280 34 ea 39 3b 9d 46 8c bc 56 4d a3 be 96 a5 18 bc
       0.0028368356 -0.017123515 -0.3189494 -0.0093168225
000290 a5 d7 1f 3f d1 ba 38 be e0 53 99 3e 39 5e 20 be
       0.6243842 -0.18040015 0.29946804 -0.15660943
0002a0 5c 3b 32 be 04 f1 dc 3e 62 b1 4b be 9f 26 10 be
       -0.17405456 0.4315263 -0.19891885 -0.14077233
0002b0 bf 67 19 bf 53 e4 f3 bd 5f ee a4 be 67 cc be be
       -0.5992393 -0.11908784 -0.32213113 -0.37265322
0002c0 a2 19 77 3e 56 cd 6d 3e 7c d1 27 3e 64 d3 cb 3e
       0.24130872 0.2322286 0.16388506 0.39809716
0002d0 c2 7d 7a 3f 87 62 8a be 50 35 77 3d 8a cd 6e be
       0.9784814 -0.27028295 0.060353577 -0.23320594
0002e0 af 3e db 3e ea 90 8b be 2d 19 50 bd eb 50 5b 3e
       0.4282126 -0.27258998 -0.05080526 0.21417587
0002f0 bc b8 72 3f e7 94 11 3f 77 6c fe be 8e 6e 42 3e
       0.9481313 0.5686783 -0.49692127 0.18987486
000300 68 f9 90 be d7 4b b9 bd 7b 6d 0a 3f de 35 ba 3b
       -0.28315282 -0.090476684 0.54073304 0.005682691
000310 d2 97 07 3f 71 7f 94 be 8d 14 01 3e 95 5d 83 bd
       0.52966034 -0.2900348 0.12605496 -0.06414334
000320 c9 54 d9 bc b7 ed 5e 3e 58 fe 24 3e a2 a6 1b 3f
       -0.026529687 0.21770369 0.1611265 0.60801136
000330 37 c5 05 be d5 f0 57 3f bd 1e 10 bf 5f 63 8b be
       -0.13063513 0.84351856 -0.562969 -0.27224252
000340 1b ff 18 bf 68 0c 57 be 12 f0 28 3f b5 90 6a 3f
       -0.5976426 -0.21000826 0.6599132 0.91627055
000350 59 9c 10 3f 94 39 8a 3d 3c 02 93 be ef 02 46 bf
       0.5648857 0.067492634 -0.28712642 -0.77348226
000360 9c 0e 0b be e2 91 b5 3e aa db 78 be 4d 39 c4 be
       -0.13579792 0.35462862 -0.24302545 -0.38324967
000370 ad b2 5e 3f ac e0 28 3d ae 96 1e bf 8a 87 cb be
       0.8699139 0.04122989 -0.6194867 -0.39751846
000380 3d 9c cb be f2 fa 2f 3f 5e c4 86 be b7 69 1a bf
       -0.39767638 0.6874229 -0.2632169 -0.6031756
000390 e4 59 6e 3e ab 4a 35 bf 8c c6 ba 3e c2 1a 9d 3e
       0.23276478 -0.7081706 0.36479604 0.30684477
0003a0 1c 75 14 be 0d 0e 68 3d 9c a5 a9 3d e5 05 c0 3e
       -0.14497799 0.056654025 0.082835406 0.37504497
0003b0 0f 98 02 bf af 49 4d 3e 21 d7 e6 be 0b 4c 2c 3f
       -0.51013273 0.2004764 -0.45086005 0.6730353
0003c0 60 f1 d8 be 55 9e f9 3e ef 46 25 be e7 7a 08 bf
       -0.42371655 0.4875361 -0.1614034 -0.53312534
0003d0 b9 ed c1 3e 32 e3 8d bf 9f b5 14 3f 52 b3 bb be
       0.3787668 -1.108496 0.5808963 -0.36660248
0003e0 bc 9b 19 3e fb d9 f8 be e7 48 41 3c 4a 57 31 3f
       0.15000814 -0.48603806 0.011797166 0.6927382
0003f0 6a 62 8c 3e 93 45 77 bd db 43 96 bf 35 70 bf 3d
       0.27418834 -0.060369086 -1.1739458 0.09347574

lstm.weight_hh_l1 f4 [256, 64]
000000 92 8f dc bd 64 56 86 bd d0 10 c5 3d bc bb cf bd
       -0.10769571 -0.065594465 0.09622347 -0.10143229
000010 00 ed 51 3c a0 33 0c bd c0 9d 16 3d 40 ac 82 3b
       0.012812853 -0.03422892 0.036771536 0.003987819
000020 dc 32 be bd 30 fc fd bd c4 71 9e bd 80 0d 8d bc
       -0.092870444 -0.124016166 -0.07736543 -0.017218351
000030 d8 57 10 3d 62 98 ad 3d c0 8a af 3b f8 3a 2e 3d
       0.035240024 0.0847633 0.0053571165 0.042536706
000040 48 9b 7d bd 00 50 5a bd c0 d7 3c 3c 1c 01 6a bd
       -0.061915666 -0.05329895 0.011526048 -0.057129964
000050 dc 75 74 bd 0e c5 b4 3d b8 54 dd bc 40 e8 4d bc
       -0.059682712 0.08826648 -0.027017936 -0.01256758
000060 70 16 06 bc be 0e e2 bd b8 5f 7d bd 80 e6 ad 3a
       -0.00818406 -0.11037968 -0.061858863 0.0013267547
000070 72 31 92 bd e4 d1 d4 3d 00 f8 1c bc 5e c9 a0 3d
       -0.07138337 0.10391596 -0.009580612 0.07850908
000080 d0 1c e3 bd a4 b3 53 bd 48 d1 1e bd a6 c8 89 3d
       -0.1108948 -0.05168499 -0.038773805 0.06727724
000090 ee 9a cd 3d 74 03 35 3d 78 85 ef bd 84 bb 90 3d
       0.10039316 0.044192746 -0.11695379 0.07067016
0000a0 3e cb f2 3d 00 d2 bf 3b 88 4c a3 bd 20 4d e0 3b
       0.118551716 0.0058538914 -0.079735816 0.0068451315
0000b0 78 95 92 bd ec eb d0 bd 6c 9d 3f bd 86 95 aa 3d
       -0.07157415 -0.102012485 -0.04678099 0.083293006
0000c0 cc 15 da 3d 48 7a 40 3d 80 d9 0b 3b 60 62 b6 bb
       0.10648689 0.046991616 0.0021339357 -0.0055659264
0000d0 20 48 9c bd 54 e0 8b bd 20 b7 d7 3d 30 d0 5f 3d
       -0.07630944 -0.068298966 0.10532975 0.054641902
0000e0 d0 f6 d1 3c 00 00 23 ba e0 3f cc bb 5e 86 d7 bd
       0.025630385 -0.00062179565 -0.0062332004 -0.105236754
0000f0 c6 fb 9c 3d d8 32 d0 3d 40 7e e3 bd 3a 48 9d bd
       0.076652095 0.10165948 -0.11108065 -0.07679792
000100 fc 5c 33 bd d0 33 68 bc c4 09 58 bd 06 fe db 3d
       -0.04378985 -0.014172509 -0.05274369 0.107418105
000110 80 03 1b 3c 70 40 bf bd 40 46 23 bd a8 f1 f8 3d
       0.009461284 -0.09338462 -0.039861917 0.12155467
000120 2c 9a 80 3d 98 77 e8 3c 0a 75 a6 bd 00 1d 74 3b
       0.06279406 0.02837734 -0.08127792 0.003724873
000130 08 fc e1 3c f0 11 ac bc 54 0b d9 bd 32 83 f4 3d
       0.027585998 -0.021004647 -0.10597864 0.11939086
000140 f8 0e cd 3d 20 29 29 bc e8 03 30 bd c6 9f b9 3d
       0.10012621 -0.010324746 -0.042972475 0.090636775
000150 aa e9 e3 bd 80 6e 52 3d e0 f8 ca 3d 7e cf c9 3d
       -0.11128552 0.051374912 0.099107504 0.09854029
000160 ba 86 fc bd 06 10 f1 3d ea 9c f2 3d 2c 40 ce 3d
       -0.123303846 0.11770634 0.11846335 0.100708336
000170 60 2e 26 3d 30 ba ee bd 64 09 5c 3d 4a 28 e6 bd
       0.04057157 -0.11656606 0.053719893 -0.11238153
000180 04 42 eb bd 94 0e 1b bd a8 f3 dd 3d 6e 98 d4 bd
       -0.11487201 -0.0378557 0.10837489 -0.10380636
000190 cc d6 a7 bd 9c 71 a3 bd 1c ab b2 bd 64 0e c5 bd
       -0.08195266 -0.07980654 -0.08724043 -0.096218854
0001a0 80 05 82 ba 60 9f e8 bd cc 94 b8 3d c4 43 c2 3d
       -0.0009919852 -0.11358523 0.09012756 0.094855815
0001b0 78 60 fc bd 3c 29 6d 3d 2c ab ac 3d 34 87 a0 bd
       -0.123230875 0.057900652 0.08431086 -0.07838288
0001c0 22 a6 c3 bd 20 f4 02 3d 40 e0 b1 3d f0 3e e2 bc
       -0.09553172 0.031971097 0.086853504 -0.027617902
0001d0 20 ac 3b bd 64 90 0a bd c4 f0 3f 3d e0 22 96 3b
       -0.045818448 -0.033829108 0.04686047 0.004581794
0001e0 a4 a0 7e bd c4 3b 62 3d d2 ae dd bd dc b2 97 bd
       -0.062164918 0.05523278 -0.1082436 -0.074071616
0001f0 68 a7 4c bd f0 4a 43 3d 30 1c a0 3d d0 90 68 bc
       -0.04996434 0.047678888 0.07817876 -0.014194682
000200 44 ca dc bd 0c f8 d8 bd 94 53 5b 3d 80 29 6d 3c
       -0.107807666 -0.10594186 0.053546503 0.014475226
000210 cc 28 af bd c2 75 c4 bd 14 4b ef 3d 78 ec bc bd
       -0.08552703 -0.09592773 0.11684242 -0.0922479
000220 a8 ac c7 bc 40 e8 f9 3d 70 43 99 bc d4 4a b5 3d
       -0.024374321 0.12202501 -0.018708915 0.08852163
000230 dc 28 a4 3d 10 37 ef bd 1e 50 e9 3d 3c da d2 bd
       0.08015606 -0.11680424 0.11392234 -0.10295531
000240 28 18 44 3d 00 28 6b 39 48 d6 ad 3c c2 90 9f 3d
       0.0478746 0.00022426248 0.021220341 0.07791282
000250 34 de 34 bd f0 d0 2c bd 54 14 9c bd 6c eb 98 3d
       -0.044157222 -0.042191446 -0.07621065 0.07466778
000260 60 f4 48 3d 70 45 7d 3d ce e1 8d 3d 00 30 5f 39
       0.04906118 0.0618338 0.069278345 0.00021284819
000270 24 27 ae bd 42 e5 d3 bd 7c 41 3e bd d4 8f 58 bd
       -0.08503559 -0.10346462 -0.04644917 -0.05287154
000280 a4 10 50 bd 38 6f ae 3c d8 33 f6 bd 04 6b c5 bd
       -0.05079712 0.021293268 -0.12021607 -0.09639552
000290 38 12 9e 3d 9c d0 b7 bd 00 31 97 bb f6 b4 97 3d
       0.07718319 -0.08975336 -0.0046139956 0.074075624
0002a0 a8 a1 29 bd 80 88 1b 3d 1c 86 40 3d a4 52 52 3d
       -0.041413933 0.037971973 0.047002897 0.051348343
0002b0 60 c2 92 3c f0 60 2e bd 2c 40 6c bd 50 02 9b 3d
       0.01791495 -0.042572916 -0.057678387 0.075688004
0002c0 6e 4d cd bd 7c 88 fb 3d 1a e2 a0 3d b8 c6 f6 3c
       -0.10024534 0.12281892 0.078556255 0.030124053
0002d0 7a d9 cf 3d 6c d7 b6 bd b4 5a 0a 3d 06 9c 80 bd
       0.10148902 -0.08927807 0.033777907 -0.06279759
0002e0 84 b4 9b 3d 20 dd cc bc 68 c8 d1 3d 22 7c ad bd
       0.0760279 -0.025007784 0.102433026 -0.08470942
0002f0 34 d1 75 bd ba 80 da 3d 40 36 55 bd 40 0e 1d 3c
       -0.060013965 0.10669084 -0.05205369 0.009585917
000300 c8 c7 d0 3c 18 56 47 3d 40 0b 22 3d 4c 4f 29 3d
       0.025485888 0.04866609 0.03956151 0.04133539
000310 58 3a 83 bc 40 21 c6 3b d6 27 c5 3d d0 9d f9 bd
       -0.016019031 0.006046444 0.09626739 -0.121883035
000320 74 1f b3 3d b8 7e d5 3c 7e d8 d7 bd 30 2b e1 bc
       0.087462336 0.0260614 -0.105393395 -0.027486414
000330 5c 77 cd bd 72 29 b0 3d 48 21 f6 bd e0 00 8c bc
       -0.100325316 0.08601655 -0.12018067 -0.017090261
000340 14 5d c7 3d b0 f1 f2 3c dc cb e3 bd c0 56 29 3b
       0.0973455 0.029656261 -0.111228675 0.002583906
000350 4c c3 f2 3d a8 77 84 3d 90 f5 23 3c 56 f0 c1 bd
       0.11853656 0.06468135 0.010007277 -0.094696686
000360 8a 63 a3 3d 14 72 cc 3d f4 e3 f7 3d 1a a9 ea 3d
       0.0797797 0.09982696 0.121040255 0.11458035
000370 76 62 fb 3d 18 b5 81 3c 0a 7a 8e bd ce 69 90 3d
       0.12274639 0.015833423 -0.06956871 0.07051431
000380 60 4b 2e bd e0 8f a3 bb 70 47 94 3d a8 ad 56 3d
       -0.042552352 -0.0049915165 0.07240188 0.052411705
000390 14 a7 7d bd da c8 9a bd ac 1f 5e bd f8 8b d8 3c
       -0.061926916 -0.07557841 -0.054229423 0.02643393
0003a0 06 27 cc bd 34 df d1 bd a0 8f db bb 92 60 e8 bd
       -0.09968381 -0.10247651 -0.006700471 -0.11346544
0003b0 70 eb 36 3d 98 7c d7 bc 90 e3 10 3c 5c 37 40 3d
       0.044658124 -0.026304528 0.008843318 0.046927795
0003c0 80 87 e0 bd a4 a8 17 bd e4 b8 4e 3d 3a e5 be 3d
       -0.109633446 -0.037026063 0.050469294 0.09321065
0003d0 96 b8 d9 3d 24 d8 c5 3d fc c5 11 3d e0 40 df bc
       0.1063091 0.09660366 0.035589203 -0.027252614
0003e0 86 4e 96 bd 00 07 7d ba 70 96 20 3c a8 ed 69 3d
       -0.07339196 -0.0009652227 0.009801492 0.057111412
0003f0 58 e4 b7 bc f4 08 52 bd 20 7b 02 bc a6 14 e9 3d
       -0.02244775 -0.05127807 -0.007963926 0.113808915

lstm.bias_ih_l1 f4 [256]
000000 29 8b 88 3e 5f 22 24 3f 13 68 bd 3e bc 0a 1f 3f
       0.2666867 0.64114946 0.36993465 0.62125754
000010 a9 ee 2e 3e ad 82 f9 3e 52 d3 bc 3e cf 81 05 3e
       0.17083229 0.4873251 0.36879975 0.130378
000020 54 e2 a0 3e d8 5f c0 3d a2 30 fc 3e b4 ca 91 3e
       0.31422675 0.09393281 0.49255854 0.28474963
000030 fb 1b 0b 3e 6c cb e6 3e d5 7b ad 3e 12 4d 84 3e
       0.13584892 0.45077074 0.3388354 0.2584005
000040 6d e8 fc 3e a3 4e b1 3e 5a c8 91 3e 87 8d c7 3e
       0.49396077 0.34630308 0.2847317 0.38975164
000050 34 49 d7 3e 7f b9 f9 3e b2 81 28 3f a0 40 ce 3e
       0.42048037 0.48774335 0.658229 0.4028368
000060 7f fe a3 3e 0c f4 15 3e 0a 90 b0 3e c2 d3 85 3e
       0.32030103 0.14643878 0.34484893 0.2613812
000070 ed 91 a8 3e a7 b8 3e 3e be 60 37 3f 53 4b cf 3e
       0.32923833 0.18625127 0.7163199 0.40487155
000080 9c e9 9d 3e f4 83 fb 3d 7c 07 90 3e 47 0d ba 3e
       0.30842292 0.122810274 0.2813071 0.36338255
000090 13 b0 e8 3e 3e 03 02 3f 39 4d 15 3f e3 3a 22 3d
       0.45446834 0.507862 0.5832096 0.03960694
0000a0 7b 70 cb 3e 18 2d bb 3e 8c cf fe 3e 2d 29 9d 3e
       0.39734253 0.3655784 0.4976772 0.30695477
0000b0 63 99 92 3e c3 19 fd 3e bf c7 e6 3e 5c 39 9e 3e
       0.2863265 0.49433717 0.4507427 0.30903137
0000c0 7f 1c d1 3e ac 56 8f 3e 59 83 0d 3f d1 48 f5 3e
       0.40842053 0.27995813 0.55278546 0.47907117
0000d0 1e 0d cf 3e 8a e5 17 3f cd 5d c5 3e 31 70 7f 3e
       0.40439695 0.59334624 0.38548127 0.24945141
0000e0 59 b2 42 3e 71 bc 84 3e a6 73 bf 3e f4 3c 7c 3e
       0.19013347 0.2592502 0.3739292 0.24632627
0000f0 42 9a 54 3e 1e 20 fb 3e 25 bf 87 3e 68 e9 5e 3e
       0.2076197 0.4904794 0.2651302 0.21768725
000100 1e c3 f4 bd 94 19 34 3d 20 4d fe bc 38 e3 69 3d
       -0.11951278 0.043969706 -0.031042635 0.05710146
000110 7a 4f c1 3d f4 28 ae bd 90 33 01 3d b8 e0 c4 bd
       0.09438987 -0.08503905 0.031543314 -0.09613174
000120 60 24 24 3c 54 f5 4e 3d 96 c3 8e 3d f2 3e aa bd
       0.010018438 0.050526932 0.06970899 -0.08312787
000130 20 61 73 bd 5e 38 f2 bd ca bd 85 bd e0 95 d2 bb
       -0.059418797 -0.118271574 -0.0653034 -0.006426558
000140 88 da 2d bd e0 5f ae bd 58 13 4e 3d c0 4e fe bb
       -0.042444736 -0.085143805 0.050311416 -0.0077608526
000150 c8 a9 4e bd 3a d3 91 3d 34 ac 47 bd 44 e7 b4 bd
       -0.050454885 0.071203664 -0.04874821 -0.08833173
000160 10 23 b8 bd 0a d0 e1 3d 58 18 fc 3c 54 ef f7 bd
       -0.08991063 0.110260084 0.030773327 -0.12106195
000170 10 dd 28 bd 34 03 ce bd ce 8c 9d 3d 46 43 f9 3d
       -0.041226447 -0.10059205 0.07692872 0.121710345
000180 78 63 2a bd 7c 27 89 bd 90 e6 14 3c ee 71 ee 3d
       -0.041598767 -0.06696984 0.0090881735 0.11642824
000190 6c 4d 52 3d 80 33 28 3b 30 73 45 3d f0 69 ca 3c
       0.051343367 0.0025665462 0.048205554 0.024708718
0001a0 5c 47 85 bd c8 32 a4 bc a2 38 c0 3d 78 bc 5e 3d
       -0.06507751 -0.020043746 0.09385802 0.054378957
0001b0 48 f4 ee 3d b0 c4 7f bd 00 0d db ba f8 6e ef bd
       0.11667687 -0.062443435 -0.0016712248 -0.116910875
0001c0 e0 df 5d 3d 90 83 8b 3c e0 e5 3f 3d 60 88 99 bd
       0.054168582 0.017030507 0.046850085 -0.074967146
0001d0 5c 5e e0 bd f4 bd 58 bd a8 2b cb 3c ce 1e f4 bd
       -0.109554976 -0.05291553 0.02480109 -0.11919938
0001e0 c0 e5 4c 3b d0 d2 87 bc b8 1d 98 3c a0 f6 99 3b
       0.0031264871 -0.016580015 0.018568859 0.0046985894
0001f0 b6 09 d4 bd b4 55 2f 3d 96 f2 a1 bd b8 bd 04 bd
       -0.10353415 0.042806342 -0.07907598 -0.032407492
000200 b1 ed 96 3d d5 ba 4a 3e 28 7b bb be 92 02 31 be
       0.07369555 0.19797833 -0.36617398 -0.17286137
000210 ee b1 28 be af ca bd bd 0c 0c 64 be 17 24 9f bd
       -0.16474125 -0.092671745 -0.2227022 -0.077705555
000220 91 57 75 3e 7f e9 58 bd 25 4b 16 bd 53 0b 36 be
       0.23959185 -0.052957054 -0.036692757 -0.17777757
000230 36 3f 4d 3d 43 8f 97 bc 71 67 82 bd c6 1a 48 be
       0.05010911 -0.01850093 -0.06367386 -0.19541463
000240 63 2f 35 be 18 85 0f 3c d2 9c 16 bd d1 c6 3d be
       -0.17693858 0.008759759 -0.03677065 -0.18532874
000250 da d9 7e bc 34 3f 72 bb 52 96 d6 bd e8 47 3a bd
       -0.01555487 -0.0036963942 -0.1047789 -0.04547873
000260 47 45 28 3d 77 dc 18 be 65 c4 ec 3d bd bc ef bd
       0.041081693 -0.1492785 0.11560897 -0.11705921
000270 11 21 6a bc 88 93 7c be 46 1e 2d bd 26 c9 9f 3d
       -0.01429011 -0.24665654 -0.0422652 0.07802038
000280 35 97 e7 bd a4 ce 97 bd 32 b7 1d be 0a 13 ad bd
       -0.11308137 -0.074124604 -0.15401915 -0.08450897
000290 e4 05 9a be e0 a5 ed 3a d0 46 be 3d 3c 95 70 bd
       -0.3008262 0.00181311 0.0929085 -0.05873607
0002a0 bf d8 7b bc 9c c6 e7 bd 08 ae dc bc 9b 9b e1 bd
       -0.0153715005 -0.113171786 -0.026938453 -0.110160075
0002b0 73 27 d7 3e b0 fd c2 3d 9e c1 9c 3e 0f 2f 66 be
       0.42022285 0.09521043 0.30616468 -0.22478889
0002c0 4b 5a 18 3e ca a0 0d 3e 97 3e 32 3e b1 df f7 bd
       0.14878194 0.13830867 0.17406689 -0.121032126
0002d0 37 50 97 bc 9b 21 f6 3d e0 f6 a8 3d 41 ad 5f 3c
       -0.018470867 0.120181285 0.08250213 0.013652147
0002e0 4e 43 95 bd fb ca 43 be 54 c3 69 3e 0f fd 80 bc
       -0.07288228 -0.191204 0.22828418 -0.015745668
0002f0 1e a4 8d 3e 6d 46 77 3c 41 cc 20 3e fc 89 67 bb
       0.27664274 0.015092474 0.15702917 -0.0035330048
000300 cc c0 7d 3e fd d9 87 3e af d1 6a 3e d5 b6 d4 3e
       0.24780577 0.265335 0.2293155 0.4154574
000310 94 03 72 3e d9 11 0d 3f 40 ec cf 3e 3b 9d 8e 3e
       0.23634177 0.5510536 0.40609932 0.27854332
000320 8e 17 bb 3e 5c 2e 55 3e 7e e1 ad 3e 48 db be 3e
       0.36541408 0.20818466 0.339611 0.37276673
000330 42 90 01 3e 8d 96 81 3e 78 33 da 3e e5 89 53 3e
       0.12652686 0.25310174 0.42617393 0.20658071
000340 d1 83 d1 3e a6 24 77 3e 56 35 cb 3d 83 1d 8c 3e
       0.4092088 0.24135074 0.099222824 0.27366266
000350 cc 7f d9 3e 29 f9 f4 3e 72 a9 f1 3e 88 3e 88 3e
       0.42480314 0.47846344 0.4719959 0.26610208
000360 bb 1d f7 3e 1e 00 b5 bc e7 b2 86 3e 6d c1 ea 3e
       0.4826487 -0.022094782 0.26308367 0.45850697
000370 4d ce 90 3e 89 e2 1b 3e ef 09 fd 3e a6 49 c3 3e
       0.28282395 0.15223135 0.4942164 0.38142127
000380 09 2f 83 3e 80 06 16 3e 10 03 95 3e 37 67 b2 3e
       0.25621822 0.14650917 0.291039 0.34844372
000390 ee 69 0a 3e 02 e9 6c 3e 6f 02 2c 3f 17 d7 17 3e
       0.13516971 0.2313576 0.67191213 0.14828144
0003a0 c1 bc 99 3e fe 8f 8d 3e cc f4 92 3e 2f df 48 3e
       0.3002682 0.2764892 0.2870239 0.19616388
0003b0 7d 9d a0 3e 73 22 a0 3e 75 1b 14 3f 80 2e 59 3e
       0.31370154 0.31276283 0.57854396 0.21209145
0003c0 9c ba b9 3e 3b 44 9e 3e ed da ac 3e 1a 9f f6 3e
       0.36275184 0.3091143 0.33760777 0.4816826
0003d0 f0 78 8c 3e d9 0e ec 3e 99 b7 cc 3e be c6 95 3e
       0.27436018 0.46105078 0.39983824 0.2925319
0003e0 68 38 52 3e 56 b9 e6 3e 2e 2f 1b 3f 91 a9 95 3e
       0.2052933 0.45063275 0.60618865 0.2923093
0003f0 f1 60 7e 3e 5b 44 a1 3e 01 86 da 3e d2 e4 da 3e
       0.24841668 0.31497464 0.42680362 0.427527
