models/best_tcn_model.pth (torch, 457786 bytes, 44 tensors)

network.0.conv1.weight f4 [32, 10, 3]
0	0x3e0eef5e	0.13958499
1	0x3d8331a6	0.06405954
2	0xbd2f31cc	-0.0427721
3	0x3e2bbd68	0.16771472
4	0x3bd6414a	0.006538545
5	0x3d16e764	0.036841765
6	0xbdb60a79	-0.08888716
7	0x3de202c7	0.11035686
8	0x3e24cf48	0.16094697
9	0xbe0927fa	-0.13394156
10	0x3e76c723	0.24099402
11	0x3d0bf650	0.03417045
12	0x3e0a1fee	0.13488743
13	0xbc949ffe	-0.018142696
14	0x3db44bc0	0.08803511
15	0xbcd32c08	-0.025777832
16	0x3e413eeb	0.18871658
17	0x3cdd11f0	0.026986092
18	0xbdae8e98	-0.08523291
19	0x3d5f35a6	0.054494523
20	0xbdac4661	-0.08411861
21	0xbcaf6620	-0.021411002
22	0xbe2d632f	-0.16932367
23	0x3df80ad4	0.1211144
24	0xbe1393d4	-0.1441186
25	0xbce0c790	-0.027438909
26	0xbd532aa4	-0.051554337
27	0xbde0d2ad	-0.10977683
28	0xbd95f514	-0.073221356
29	0xbe38a70a	-0.1803247
30	0x3e28d774	0.16488439
31	0xbe1fb143	-0.15594964
32	0x3e1055ca	0.14095226
33	0x3cf8e788	0.03038384
34	0xbda2404e	-0.079224214
35	0x3de70f10	0.1128217
36	0x3ce91910	0.028454334
37	0x3e03760b	0.12837999
38	0x3ca380f8	0.019958958
39	0xbd6bd7f6	-0.057579003
40	0x3e916507	0.2839739
41	0xbd4acb60	-0.04951036
42	0x3d9d5d18	0.07683772
43	0x3cd4eae1	0.025990905
44	0x3dd824b4	0.105538756
45	0xbda376ca	-0.079816416
46	0x3db56de4	0.088588506
47	0x3d05ce28	0.03266731
48	0x3dbde2b4	0.09271756
49	0xbe105f62	-0.14098886
50	0xbe3911bd	-0.18073173
51	0xbd9076fe	-0.07053946
52	0x3d990d42	0.07473232
53	0x3e196796	0.14980921
54	0x3d576590	0.052587092
55	0x3cb0f53d	0.021601314
56	0x3d6c81f4	0.05774112
57	0xbb502540	-0.0031760484
58	0x3e0f3005	0.13983162
59	0xbe04d5b2	-0.12972143
60	0x3c3c57d0	0.0114955455
61	0xbc3ab08c	-0.011394631
62	0x3d6697cc	0.05629711
63	0xbd80c4c6	-0.062875316
64	0x3e003cd7	0.12523209
65	0xbd1bcd80	-0.038037777
66	0x3e1b0f4c	0.15142554
67	0xbe0ddd0d	-0.13853855
68	0xbddf0015	-0.108886875
69	0xbddf0387	-0.10889345
70	0x3e545601	0.20735933
71	0x3d793690	0.06084305
72	0x3e33e604	0.17568213
73	0xbe3ffdb2	-0.18749121
74	0xbe396fe9	-0.18109097
75	0xbe124480	-0.14283943
76	0xbd93a142	-0.07208492
77	0x3d977308	0.07394987
78	0x3d85e38a	0.0653754
79	0x3e32dcf1	0.17467095
80	0xbdc118fd	-0.09428594
81	0xbdfee672	-0.12446298
82	0x3e009378	0.12556255
83	0xbd97230a	-0.0737973
84	0x3de2efa0	0.11080861
85	0x3e3606fa	0.17776099
86	0x3dd5e510	0.10444081
87	0xbe114241	-0.1418543
88	0x3c2d383f	0.010572492
89	0x3d63fe70	0.055662572
90	0x3d1e1878	0.038597554
91	0x3cf754bf	0.030191777
92	0x3ddee0a4	0.108826905
93	0x3dfe3054	0.124115616
94	0xbdeda4af	-0.116036765
95	0xbdc79ea4	-0.09747055
96	0x3e2b303e	0.16717622
97	0xbd9ae889	-0.07563884
98	0xbd848ed3	-0.06472554
99	0xbe34e5c8	-0.1766578
100	0xbe6b324a	-0.22968403
101	0x3d3acf24	0.0456077
102	0xbcc56a50	-0.024098545
103	0xbd8e052a	-0.06934579
104	0x3b8c5500	0.0042825937
105	0xbdff698e	-0.12471305
106	0xbe1025f2	-0.14076975
107	0xbdcde63a	-0.10053678
108	0xbe23a049	-0.15979113
109	0xbe4877e3	-0.19576983
110	0x3e3ae202	0.18250278
111	0x3d0d3ec4	0.034483686
112	0x3d4eea3a	0.050516345
113	0xbe2e5ef3	-0.17028408
114	0xbdf59358	-0.11990994
115	0x3d15df1d	0.03658973
116	0x3ce9e048	0.028549328
117	0xbe2481ac	-0.16065091
118	0xbbe24685	-0.0069053792
119	0xbddfd96d	-0.109301426
120	0x3a04a200	0.000505954
121	0xbdc2b841	-0.095078
122	0xbc4f48c0	-0.012651622
123	0xbdfd5fb4	-0.123717695
124	0xbda6b650	-0.08140242
125	0xbdda2411	-0.1065141
126	0xbd7ffa6a	-0.062494673
127	0xbd60f005	-0.0549164
128	0x3e1cc1c6	0.15308294
129	0xbd146a88	-0.03623441
130	0x3e26b0ef	0.16278432
131	0x3d690230	0.05688685
132	0xbe1e5052	-0.15460327
133	0x3e2e35b7	0.17012678
134	0xbd4dc284	-0.050234333
135	0xbd8f5487	-0.06998544
136	0xbdf4ef1c	-0.11959669
137	0xbe39dd40	-0.18150806
138	0x3d55f5dc	0.052236423
139	0xbe299711	-0.16561534
140	0x3d919294	0.07108036
141	0xbe196d8c	-0.14983195
142	0x3e641790	0.22274613
143	0xbe093c58	-0.13401926
144	0xbd012118	-0.0315257
145	0xbb60bc44	-0.0034291903
146	0x3dc10860	0.094254255
147	0x3e16ee76	0.14739403
148	0x3e00e1c1	0.12586118
149	0xbe143dd4	-0.1447671
150	0x3d3c33e8	0.04594794
151	0xbdf25ef7	-0.11834519
152	0xbca3e678	-0.020007357
153	0xbe0bef48	-0.13665497
154	0x3e67584b	0.22592275
155	0xbe093768	-0.13400042
156	0x3dc7d674	0.097577006
157	0x3e0e98dd	0.139255
158	0x3d730284	0.05932857
159	0xbdca2770	-0.09870803
160	0x3e5ef13f	0.21771716
161	0x3d2455a8	0.04012075
162	0x3cc06670	0.023486346
163	0xbe1a3953	-0.1506093
164	0x3d9cf6c4	0.07664254
165	0xbce060c0	-0.027389884
166	0xbcbab9de	-0.022793707
167	0x3e2095ce	0.15682146
168	0x3d26b9f8	0.040704697
169	0xbdabd045	-0.08389334
170	0xbdbd405a	-0.0924079
171	0xbc0eda00	-0.008718967
172	0x3dc59ada	0.09648676
173	0xbd3f1824	-0.04665388
174	0xbdd55842	-0.104172245
175	0xbb34f1bf	-0.0027609912
176	0xbe0bab8c	-0.13639659
177	0x3d855960	0.065111876
178	0x3db4f583	0.0883589
179	0xbe300205	-0.1718827
180	0x3d2daec0	0.042402983
181	0x3dcc4e15	0.099758305
182	0x3d079a38	0.03310606
183	0xbd8528c5	-0.06501917
184	0x3db8f767	0.09031563
185	0x3dc47ee4	0.09594515
186	0x3d8bd0dc	0.06826946
187	0x3b60f0c6	0.00343232
188	0xbd460654	-0.04834588
189	0x3ca00178	0.01953195
190	0xbd9df9c5	-0.077136554
191	0xbd5eda30	-0.0544073
192	0x3def01d0	0.116702676
193	0x3e4a49bb	0.19754688
194	0xbc9410b0	-0.018074363
195	0xbd276f78	-0.04087779
196	0xbb8410fd	-0.0040303455
197	0xbc329ae0	-0.010901183
198	0x3d33c908	0.04389289
199	0x3cbadde9	0.022810893
200	0xbe29cdd4	-0.16582423
201	0xbd89fcd4	-0.06737676
202	0x3e63d27a	0.22248259
203	0x3d91a8c4	0.071122676
204	0xbc14c7a0	-0.009080797
205	0xbdb16c83	-0.08663275
206	0xbde4c2df	-0.11169981
207	0xbe27780d	-0.1635439
208	0xbd4fbea7	-0.05071893
209	0x3d7c8b10	0.061656058
210	0x3dee6a10	0.116413236
211	0x3df306b0	0.1186651
212	0xbe254234	-0.16138536
213	0xbde0db4a	-0.10979326
214	0xbdce95c9	-0.10087163
215	0x3e34da0e	0.17661306
216	0x3cd85b50	0.026410729
217	0xbdc0fdda	-0.09423418
218	0x3d9ab16c	0.07553372
219	0xbd8e6a89	-0.06953914
220	0xbda7a725	-0.08186177
221	0x3e0874f0	0.13325858
222	0xbdaa04b7	-0.083016805
223	0xbd9f326c	-0.07773289
224	0xbe39fc0e	-0.18162557
225	0x3dfa3f90	0.12219155
226	0x3d86f6f6	0.06590073
227	0x3d884582	0.066538826
228	0xbe025c0d	-0.12730427
229	0xbe927d61	-0.28611282
230	0xbe17d77a	-0.14828292
231	0x3e0b69c2	0.13614562
232	0x3e396b27	0.18107282
233	0x3e1d5304	0.15363699
234	0x3dc3e194	0.0956451
235	0x3cd092f9	0.025460707
236	0xbaea5780	-0.001787886
237	0xbe0e2e5f	-0.13884877
238	0xbdef4b2a	-0.11684258
239	0xbe2ede77	-0.17077051
240	0x3d9910b8	0.07473892
241	0xbcd44ae2	-0.025914613
242	0xbd168060	-0.03674352
243	0xbdd73033	-0.1050724
244	0xbd0b25fe	-0.03397178
245	0xbe03960c	-0.12850207
246	0xbdf451e6	-0.119296834
247	0x3daa2d75	0.083094515
248	0xbd5e4024	-0.054260388
249	0x3de6d4fc	0.11271092
250	0xbdc77e2b	-0.097408615
251	0xbe092510	-0.13393044
252	0xbd03f1fc	-0.032213196
253	0xbd698b6a	-0.05701772
254	0xbd64ca58	-0.055857033
255	0xbe31fb34	-0.17380983

network.0.conv1.bias f4 [32]
0	0xbe27d9d6	-0.16391692
1	0x3cd07fe4	0.025451608
2	0xbe0f724a	-0.14008442
3	0xbce9408c	-0.028473161
4	0xbda6de3d	-0.08147857
5	0x3e2129ad	0.15738554
6	0x3d9a3e6e	0.07531439
7	0xbd7f3885	-0.06230976
8	0x3d1a3db8	0.037656516
9	0xbd1176ff	-0.035513874
10	0x3d68f584	0.056874767
11	0x3e00d124	0.12579781
12	0x3dae1e3b	0.0850186
13	0xbdd37956	-0.10325877
14	0x3e31081a	0.17288247
15	0xbd46fced	-0.048581053
16	0xbd6dd6a4	-0.058066025
17	0x3df07b20	0.11742234
18	0x3e2d5ab8	0.16929138
19	0x3e16a635	0.1471184
20	0x3d9d484a	0.07679804
21	0xbdb19275	-0.086705126
22	0x3df7af5c	0.12093994
23	0x3dedc6fe	0.116102204
24	0xbe43b6de	-0.19112727
25	0x3dbd6b37	0.09248965
26	0xbe39e0dc	-0.18152183
27	0x3d2724c7	0.040806558
28	0x3d195bb5	0.037440974
29	0xbdaeacef	-0.08529078
30	0xbc6fea0b	-0.014643203
31	0x3dcdb429	0.100441284

network.0.conv2.weight f4 [32, 32, 3]
0	0xbc8c8598	-0.017153546
1	0xbd6ad38d	-0.057330657
2	0x3da73f36	0.081663534
3	0xbd5268a3	-0.05136932
4	0x3d719bae	0.05898636
5	0x3c1dbb30	0.0096271485
6	0xbbc8fc70	-0.0061336085
7	0x3d17250a	0.036900558
8	0x3d3fccb4	0.04682608
9	0xbd3de3c9	-0.04635981
10	0x3d7ce9f8	0.061746567
11	0x3cc7c160	0.0243842
12	0xbd5a2998	-0.053262323
13	0x3e35658e	0.17714521
14	0xbd0cdc54	-0.03438981
15	0xbd1d0cf4	-0.03834243
16	0x3c737dfc	0.01486158
17	0xbce17b7c	-0.027524702
18	0x3cd947b8	0.026523456
19	0xbddc63b4	-0.10761204
20	0xbd7d0900	-0.06177616
21	0x3ac33280	0.001489237
22	0x3d78d64f	0.060751256
23	0x3d66e240	0.056368113
24	0xbd92d3b9	-0.07169289
25	0xbbde67f5	-0.006787295
26	0x3d6d9cfc	0.05801104
27	0x3d681fdc	0.05667101
28	0xbdfcff55	-0.12353388
29	0xbd1f8738	-0.038947314
30	0xbdb3ab4a	-0.08772905
31	0x3ca65c34	0.020307638
32	0x3d68d838	0.056846827
33	0xbc79b068	-0.015239812
34	0x3c3cb218	0.01151707
35	0xbd756553	-0.059911083
36	0x3c7e1ae8	0.015509345
37	0xbc684192	-0.014175789
38	0x3d50fa5c	0.05102001
39	0xbd36d83c	-0.04463981
40	0x3d357382	0.04429961
41	0xbdb55ae2	-0.08855225
42	0x39b0c600	0.00033716857
43	0x3e615ca9	0.22008003
44	0x3d4ae918	0.0495387
45	0xbd5f0b78	-0.054454297
46	0x3e2a6ca6	0.16643009
47	0xbc375a40	-0.011190951
48	0xbda84775	-0.08216754
49	0x3dcc8dbd	0.09987972
50	0x3ad7a780	0.0016453117
51	0x3cb01420	0.021493971
52	0xbd551e03	-0.052030575
53	0xbd439ca1	-0.047756795
54	0x3c89dce8	0.01682897
55	0xbcb6a46e	-0.022295203
56	0x3cbb88ac	0.022892319
57	0xbd4979af	-0.049188312
58	0x3d82a54b	0.063791834
59	0xbc762728	-0.015023984
60	0xbd800248	-0.06250435
61	0x3cca2b41	0.024678828
62	0x3dcdc448	0.10047203
63	0x36a50000	4.917383e-06
64	0xbd9bb27d	-0.07602403
65	0xbd2df991	-0.042474333
66	0xbcdb2d84	-0.026755102
67	0xbd4beaf9	-0.049784634
68	0xbda61b73	-0.08110704
69	0x3d74ad98	0.059735864
70	0x3da283a1	0.079352625
71	0x3dc7788a	0.09739788
72	0xbd96e714	-0.073682934
73	0x3e52a38c	0.205702
74	0xbd8160da	-0.06317301
75	0x3d7963c8	0.060886174
76	0x3de3c30f	0.11121189
77	0x3da1c1c6	0.078982875
78	0x3d9681e4	0.073489934
79	0xbbd1d7ed	-0.006403914
80	0x3b023000	0.0019865036
81	0x3d4015bc	0.046895728
82	0x3c2d8de2	0.0105929095
83	0x3d36082c	0.044441387
84	0xbd065c64	-0.032802954
85	0x3c75d214	0.0150037
86	0xbdb5ede8	-0.08883268
87	0xbcda9df0	-0.026686639
88	0xbd70d28f	-0.058794554
89	0xbd0d0406	-0.034427665
90	0xbd857ab7	-0.065175466
91	0xbe07ce08	-0.13262188
92	0x3bd9c610	0.0066459253
93	0x3d87a6d4	0.06623617
94	0x3e304cda	0.17216817
95	0x3d73f3e0	0.05955875
96	0xbd58b062	-0.052902587
97	0xbeb7db70	-0.35909605
98	0x3d1e921c	0.03871356
99	0x3d6a3cb4	0.057186797
100	0xbd9a3af2	-0.07530774
101	0x3d15e7d4	0.03659804
102	0x3db0b96c	0.086291164
103	0x3cc095cd	0.02350893
104	0xbd7bdb0d	-0.0614882
105	0x3dab5f84	0.083678275
106	0x3d313b21	0.04326928
107	0x3d8a6a56	0.06758563
108	0xbd8d5bfc	-0.0690231
109	0x3de79420	0.113075495
110	0xbd8ec738	-0.06971592
111	0x3dced3c4	0.10098985
112	0xbd8488f9	-0.06471438
113	0x3d7be6a4	0.061499253
114	0x3ca76ba4	0.02043707
115	0x3d8709fa	0.065937
116	0xbc803810	-0.015651733
117	0x3d2bb4d4	0.041920498
118	0x3c1d6e4e	0.009608818
119	0xbdc50558	-0.0962016
120	0xbd209d5a	-0.039212562
121	0x3d8e49e6	0.06947689
122	0xbcdc1e28	-0.026869848
123	0x3d036650	0.032079995
124	0xbd7ea4d9	-0.06216893
125	0x3d9ccc6e	0.07656179
126	0x3d7a3254	0.061083153
127	0x3ceeb68a	0.029139776
128	0xbd55b072	-0.052170224
129	0xbdaacc8e	-0.08339797
130	0xbd41a715	-0.047278482
131	0xbd754006	-0.05987551
132	0x3dabdb86	0.0839148
133	0xbd18bad8	-0.037287563
134	0x3d3acfc8	0.045608312
135	0x3dd060ca	0.10174711
136	0x3d786fe7	0.060653593
137	0x3d0e8b7c	0.03480099
138	0xbdc91c64	-0.09819868
139	0x3d486663	0.04892577
140	0xbc8f02f8	-0.01745747
141	0xbdc3501f	-0.09536766
142	0x3d98749a	0.07444115
143	0xbd2a1da9	-0.041532192
144	0xbbec9b30	-0.007220648
145	0x3d7fbca2	0.062435754
146	0xbd90e51e	-0.07074951
147	0xbd93e1bc	-0.0722079
148	0xbb29ca01	-0.0025907757
149	0xbc5fd418	-0.013661407
150	0x3cc09648	0.02350916
151	0xbe6193d9	-0.22029056
152	0x3b4809a0	0.0030523315
153	0xbd39ee1e	-0.045393102
154	0xbe82a32a	-0.2551511
155	0xbdbf63a9	-0.093451805
156	0x3d5da7e4	0.05411519
157	0xbe2201d8	-0.15821016
158	0xbdb0b79a	-0.08628769
159	0x3da5dee6	0.08099155
160	0x3d5fe552	0.054662056
161	0x3c9b25e4	0.018938966
162	0xbd75733f	-0.05992436
163	0x3d1a01d2	0.037599392
164	0x3dc966f6	0.09834091
165	0x3d8f5da0	0.070002794
166	0xbd8ff6e8	-0.070295155
167	0x3dbeccfe	0.09316443
168	0x3c019c58	0.00791081
169	0x3d80810d	0.062746145
170	0x3da257e4	0.0792692
171	0x3db231b2	0.08700885
172	0xbe88e1f0	-0.26734877
173	0x3db708b4	0.08937207
174	0xbd8df698	-0.069318
175	0x3dcd0f79	0.10012717
176	0xbd920ec9	-0.07131726
177	0xbcb74ca0	-0.022375405
178	0xbe3f41ed	-0.18677492
179	0xbc480d70	-0.012210235
180	0xbc84151c	-0.016123347
181	0xbd88d226	-0.06680708
182	0x3dce2f30	0.10067594
183	0x3d72e3c4	0.059299245
184	0x3d3aab47	0.0455735
185	0x3d27526c	0.040850088
186	0x3da1d260	0.07901454
187	0x3b6bb0fd	0.0035963648
188	0x3c04f590	0.008115187
189	0x3cac10bc	0.021004073
190	0xbd807e42	-0.06274082
191	0xbda86149	-0.08221681
192	0x3c4d0320	0.012512952
193	0xbc3a333b	-0.011364753
194	0xbaf57940	-0.0018728152
195	0xbcbfd94c	-0.023419045
196	0xbc72897b	-0.014803286
197	0x3d87fe64	0.06640318
198	0xbd0aa444	-0.033848062
199	0x3d301fa0	0.04299891
200	0x3da50964	0.08058432
201	0xbda06cc4	-0.078332454
202	0xbe32dafd	-0.1746635
203	0xbda91d88	-0.08257586
204	0xbd65190a	-0.055932082
205	0xbe3da370	-0.18519378
206	0xbbfbbaa0	-0.0076821595
207	0xbccb54c8	-0.0248207
208	0xbe4ba41d	-0.19886823
209	0xbd04cf84	-0.032424465
210	0xbd1739d8	-0.0369204
211	0x3d049feb	0.032379072
212	0xbd1af0a4	-0.03782715
213	0xbd95a927	-0.07307654
214	0xbdafd0c5	-0.085847415
215	0xbbc12d10	-0.0058952644
216	0x3da00544	0.07813504
217	0x3ce4ba0a	0.027920742
218	0x3dc0091c	0.093767375
219	0xbd991480	-0.07474613
220	0x3c4b4e5c	0.012408819
221	0x3daf6b9a	0.08565445
222	0xbd4e71c6	-0.05040147
223	0x3d15e8f6	0.036599122
224	0x3d9cb156	0.07651012
225	0x3a927fc0	0.0011176988
226	0xbdb31f52	-0.08746208
227	0xbd122872	-0.035683103
228	0xbdb64e7d	-0.08901689
229	0xbe17e070	-0.1483171
230	0x3cf942a0	0.030427277
231	0xbd889be4	-0.06670359
232	0x3d36a7a6	0.044593476
233	0xbdb28d63	-0.087183736
234	0x3db3e3ee	0.087837085
235	0x3d40401c	0.04693614
236	0x3ce3a218	0.027787253
237	0xbd8325aa	-0.06403668
238	0x3bf7a491	0.0075574596
239	0x3c8e7bbc	0.017392986
240	0x3ce35968	0.027752593
241	0xbc9453b9	-0.018106328
242	0x3d9f2414	0.07770553
243	0xbd33b0f9	-0.043869946
244	0xbcef3d44	-0.029204018
245	0x3ce401e0	0.027832925
246	0x3c363400	0.011120796
247	0xbc888ce0	-0.016668737
248	0xbd5b92f2	-0.053606935
249	0xbb7394e0	-0.0037167594
250	0xbc4f5dce	-0.012656642
251	0xbcde0e98	-0.027106568
252	0x3d8e7e9c	0.069577426
253	0x3d5f741a	0.054554082
254	0xbdc12f79	-0.09432883
255	0xbc352858	-0.011056982

network.0.conv2.bias f4 [32]
0	0xba2ed526	-0.0006669335
1	0xbd780f88	-0.060561687
2	0x3d416633	0.047216605
3	0x3b83b939	0.004019883
4	0x3d7bfe5a	0.061521865
5	0x3d38f7f3	0.045158338
6	0xbb2be99f	-0.0026231778
7	0x3e3ac804	0.18240362
8	0xbd3c43d2	-0.045963116
9	0x3c7cb616	0.015424272
10	0x3d82c7cf	0.06385767
11	0xbbb441d2	-0.0055010105
12	0x3d78a13f	0.06070065
13	0xbda8bae6	-0.08238773
14	0xbcc8de2b	-0.02452
15	0x3d574024	0.052551404
16	0x3d856335	0.06513063
17	0xbd2e9f93	-0.04263265
18	0x3d179f30	0.037017047
19	0x3d145b5f	0.03621995
20	0x3db0c7a0	0.086318254
21	0xbdbfb153	-0.09359994
22	0xbc302ee7	-0.01075337
23	0xbd480f2a	-0.048842587
24	0xbda490d6	-0.08035438
25	0xbd20190c	-0.039086387
26	0xbdc78636	-0.097423956
27	0x3dcbf944	0.09959653
28	0xbd3b05e8	-0.04565993
29	0x3ca2911c	0.019844584
30	0xbd686cf2	-0.056744523
31	0xbd0584d1	-0.032597367

network.0.downsample.weight f4 [32, 10, 1]
0	0xbe29d1cd	-0.16583939
1	0x3edbc5f2	0.42924458
2	0x3f06ae09	0.52609307
3	0x3ea6c17f	0.325695
4	0xbd02d15d	-0.031937946
5	0x3ebe2e75	0.3714482
6	0xbedcfc6c	-0.43161333
7	0x3e307caf	0.17235063
8	0x3d8fa02b	0.070129715
9	0xbe4426e1	-0.19155456
10	0xbeb226f1	-0.34795335
11	0xbecffffe	-0.40624994
12	0xbd8a56f5	-0.06754867
13	0xbe97253d	-0.29520598
14	0xbde12206	-0.109928176
15	0x3e468eff	0.19390486
16	0xbeae8357	-0.3408458
17	0x3de15780	0.110030174
18	0xbc0d863e	-0.008637963
19	0x3dc9118b	0.09817799
20	0xbd8d6311	-0.06903661
21	0x3da46e05	0.08028797
22	0xbc71a4a4	-0.014748726
23	0xbdfbf947	-0.12303405
24	0x3e868cc2	0.26279265
25	0xbe134059	-0.14380015
26	0xbebedafc	-0.37276447
27	0x3ee8505a	0.45373803
28	0xbe5babc2	-0.21452239
29	0xbeca4465	-0.39505306
30	0xbe1cbaa8	-0.15305579
31	0xbe35bb62	-0.17747262
32	0xbe5988df	-0.21243618
33	0xbe91ae72	-0.28453404
34	0xbdd17a87	-0.10228448
35	0xbe68c277	-0.22730432
36	0xbecd03f9	-0.40042093
37	0x3ee386b2	0.44438702
38	0xbe9d2d74	-0.3069874
39	0xbeade3fd	-0.33963004
40	0xbe2c7130	-0.16840053
41	0x3c3c5815	0.01149561
42	0x3d9e6b34	0.07735291
43	0xbec91be2	-0.39279085
44	0x3e87a888	0.26495767
45	0xbe868620	-0.26274204
46	0x3f31e595	0.6949094
47	0x3ec29f9c	0.38012397
48	0xbc078b96	-0.008273026
49	0xbd90fef9	-0.07079882
50	0x3e8a55f8	0.27018714
51	0x3ecc8372	0.39944035
52	0xbdca0bfd	-0.09865568
53	0x3c8ca67d	0.017169232
54	0x3e6cdd69	0.23131336
55	0x3de0e69b	0.109814845
56	0xbe7b09b0	-0.24515414
57	0xbe8e48fb	-0.27790055
58	0x3de6f667	0.11277466
59	0x3d840c67	0.06447678
60	0xbe19ce83	-0.15020184
61	0xbeaca8f1	-0.33722642
62	0x3e6ccd9c	0.23125309
63	0x3ec05290	0.3756299
64	0x3e8f5bc1	0.2799969
65	0xbe35f9a3	-0.1777101
66	0x3e989c36	0.2980668
67	0xbe816b78	-0.25277305
68	0x3e23a24b	0.15979879
69	0x3ec3864b	0.38188395
70	0x3dd62a5d	0.10457299
71	0xbea3b585	-0.31974426
72	0x3cc93ac0	0.024564147
73	0xbee8046b	-0.4531587
74	0xbd8e9c09	-0.06963355
75	0xbe8a50ab	-0.2701467
76	0xbec0f153	-0.37684116
77	0xbefa6be0	-0.48910427
78	0xbe2b79bb	-0.16745655
79	0x3caaf0ff	0.020866869
80	0xbd6382b2	-0.055544563
81	0x3e118755	0.14211781
82	0xbd4f3e4f	-0.05059653
83	0x3e8933c4	0.26797307
84	0x3d2ffee6	0.0429677
85	0x3e8428c8	0.25812364
86	0x3f4a11b1	0.78933245
87	0xbf2f61ff	-0.68508905
88	0xbeb5b485	-0.35489288
89	0x3e2b707f	0.16742133
90	0x3ebd440a	0.36965972
91	0xbebbdb96	-0.36690968
92	0x3db5b731	0.088728316
93	0xbe700134	-0.23437959
94	0x3ecbc093	0.3979536
95	0x3e2520eb	0.16125838
96	0x3ece2741	0.40264323
97	0x3f028126	0.50978315
98	0x3c1c3113	0.009533185
99	0x3eb9d11e	0.36292356
100	0xbdc05327	-0.0939086
101	0xbd039815	-0.03212746
102	0xbdd61eab	-0.10455068
103	0xbea2b5a9	-0.3177922
104	0xbde5524c	-0.111973375
105	0x3cf253b9	0.029580938
106	0x3ed9df11	0.42553
107	0xbf68527a	-0.9075085
108	0xbe5a068e	-0.21291563
109	0x3de815ba	0.11332269
110	0xbe6c1f14	-0.2305873
111	0x3e878e83	0.26475915
112	0xbf140656	-0.5782217
113	0x3e83ec96	0.25766438
114	0xbf0b1aaf	-0.5433759
115	0xbe574215	-0.21021302
116	0x3da84e11	0.08218015
117	0x3e82cd37	0.25547192
118	0x3f177374	0.5916054
119	0x3da10c3c	0.07863662
120	0x3e87aa43	0.26497087
121	0xbec0e442	-0.37674147
122	0x3b42e120	0.0029736236
123	0x3effe842	0.49981886
124	0xbf0bba38	-0.5458102
125	0xbeea3eee	-0.45751137
126	0x3e7335a4	0.23750931
127	0xbeae6988	-0.3406489
128	0xbf221b3e	-0.6332282
129	0xbe6c5652	-0.23079804
130	0x3e3762d4	0.17908794
131	0xbd4ab0d6	-0.04948505
132	0x3d3edd18	0.04659757
133	0xbea4135e	-0.32046026
134	0x3e9d90e8	0.30774617
135	0xbe968e09	-0.2940524
136	0xbe052148	-0.13000977
137	0x3dfc7890	0.12327683
138	0xbda899fe	-0.08232497
139	0x3de24201	0.110477455
140	0xbdd595b2	-0.10428943
141	0x3d35dab4	0.044398025
142	0x3f0694c1	0.5257073
143	0xbec5539c	-0.3854035
144	0x3eb07239	0.34462145
145	0x3d5910ed	0.052994657
146	0xbbdb4074	-0.006691033
147	0x3f1ac6e4	0.60459733
148	0x3e0890ca	0.13336483
149	0xbe97fc7f	-0.29684827
150	0x3e91a553	0.28446445
151	0x3dac312d	0.08407817
152	0x3f28b8f6	0.6590723
153	0xbe52b9ce	-0.20578691
154	0x3f0afa13	0.5428783
155	0x3eabcbf3	0.33554038
156	0x3d0cf567	0.03441372
157	0x3e162ea8	0.14666235
158	0x3dc7b99a	0.097521976
159	0xbe0d41b2	-0.13794592
160	0x3e0c6b74	0.13712865
161	0x3dec47be	0.11537121
162	0xbdaa6a7e	-0.08321093
163	0x3f2f4248	0.6846051
164	0xbe4bebf1	-0.19914223
165	0xbe857333	-0.26064453
166	0xbe18a795	-0.14907677
167	0x3e4e8d78	0.20171154
168	0xbe2dab94	-0.16959983
169	0x3e27d134	0.16388398
170	0xbe5050e0	-0.20343351
171	0x3e2c446c	0.16822976
172	0xbe2d769f	-0.16939782
173	0x3e650f13	0.22369032
174	0x3e624e04	0.22100073
175	0x3e91a434	0.2844559
176	0xbe963897	-0.2934005
177	0xbfdd4457	-1.7286481
178	0xbe653399	-0.22382964
179	0xbd99ae9f	-0.075040095
180	0x3ecb2674	0.39677775
181	0xbe3a943f	-0.18220614
182	0xbde4bdc4	-0.111690074
183	0x3eb6af8e	0.35680813
184	0xbd63031b	-0.055422883
185	0xbe942c4f	-0.28940055
186	0xbda3f5ff	-0.080059044
187	0xbf29e0c7	-0.6635861
188	0x3ed070d2	0.40711075
189	0x3d5c0811	0.05371863
190	0xbc939f3f	-0.01802027
191	0x3edcc8a8	0.4312184
192	0x3def4a4d	0.116840936
193	0x3e42e00f	0.19030784
194	0xbddb7305	-0.107152976
195	0x3eb680ff	0.3564529
196	0x3f022c02	0.508484
197	0xbdab7aee	-0.08373056
198	0x3e43f1c2	0.19135192
199	0xbe84a2a7	-0.25905344
200	0xbc6483c8	-0.013947435
201	0x3e234163	0.15942912
202	0xbe181f54	-0.148557
203	0xbde12908	-0.10994154
204	0x3e764c89	0.24052633
205	0x3c967c24	0.018369742
206	0xbd4bbcc2	-0.04974056
207	0x3df70765	0.12061957
208	0xbe6dfc6c	-0.23240823
209	0x3e76753d	0.2406816
210	0xbdc6dd60	-0.09710193
211	0xbe86d6c4	-0.26335728
212	0x3d90302a	0.070404366
213	0xbeafeaa0	-0.34358692
214	0xbd735ca7	-0.059414532
215	0xbdeda89e	-0.11604427
216	0xbef6c8ff	-0.48200223
217	0x3ec6f4ef	0.38858745
218	0xbe91ea73	-0.28499183
219	0xbe1c8521	-0.1528516
220	0xbc00ecca	-0.007868955
221	0x3ec22a0c	0.37922704
222	0x3ebf8363	0.37404928
223	0xbeac1aba	-0.3361414
224	0x3e94108b	0.2891887
225	0x3d9e4edd	0.07729886
226	0x3f0aea57	0.54263824
227	0x3eb40be2	0.35165316
228	0xbe48c687	-0.19606982
229	0x3ed64379	0.41848353
230	0x3d27e328	0.040988117
231	0xbe4db413	-0.20088224
232	0xbdb9f996	-0.09080808
233	0x3f48b8c7	0.7840695
234	0xbe74cd1a	-0.23906365
235	0xbee5b079	-0.448612
236	0xbdda1af4	-0.10649672
237	0x3ead6079	0.33862665
238	0x3d13c3ac	0.03607528
239	0xbd890fd0	-0.06692469
240	0xbe96276d	-0.29326954
241	0xbe92ff29	-0.28710297
242	0xbeabc5fa	-0.33549482
243	0x3ebc7c42	0.3681355
244	0xbdd721ad	-0.1050447
245	0x3e46e797	0.19424282
246	0x3e99daf2	0.30049855
247	0xbc029c92	-0.0079719
248	0x3e6e2fdd	0.23260446
249	0x3e0db767	0.13839494
250	0xbe954904	-0.2915727
251	0x3de9fb4c	0.11424884
252	0xbebdcd74	-0.3707081
253	0x3e8860b8	0.2663629
254	0xbe654497	-0.22389446
255	0x3ca77ca0	0.020445168

network.0.downsample.bias f4 [32]
0	0x3e227bd9	0.15867557
1	0xbe5495fa	-0.20760337
2	0xbe1cdae3	-0.15317874
3	0x3ceef463	0.029169267
4	0xbe730f49	-0.237363
5	0xbef41aa5	-0.47676578
6	0xbe9afd47	-0.3027136
7	0x3e2d67ab	0.16934077
8	0x3d906b2a	0.0705169
9	0xbd4e6798	-0.050391763
10	0xbda3a5aa	-0.07990582
11	0xbe8fdcf5	-0.28098264
12	0xbe6194f4	-0.22029477
13	0xbe9c5c70	-0.30539274
14	0xbeb7b41b	-0.35879597
15	0x3db77cdf	0.08959364
16	0xbe2c86c7	-0.16848288
17	0xbd847ec0	-0.06469488
18	0xbe73b423	-0.23799185
19	0x3d8d560c	0.06901178
20	0xbe3b4207	-0.18286906
21	0xbde97a2a	-0.11400254
22	0x3e383236	0.17987904
23	0x3e76bdd8	0.24095857
24	0xbe8f4450	-0.27981806
25	0x3e346548	0.1761676
26	0xbdbfe4b1	-0.09369791
27	0xbd59cc96	-0.053173624
28	0x3e462bd4	0.19352657
29	0xbb8b0278	-0.0042422377
30	0x3e96d4e0	0.29459286
31	0x3e00d356	0.12580618

network.0.bn1.weight f4 [32]
0	0x3f77ac95	0.96747714
1	0x3f835f55	1.0263468
2	0x3f86071f	1.0470923
3	0x3f8c5b4d	1.0965363
4	0x3f93c993	1.154589
5	0x3f8c844b	1.0977873
6	0x3f5de719	0.8668075
7	0x3f935306	1.1509712
8	0x3f6a5825	0.9154075
9	0x3f5ef797	0.8709654
10	0x3f4c092d	0.797015
11	0x3f74fcd7	0.95698303
12	0x3f809ad6	1.0047252
13	0x3f856ad1	1.0423223
14	0x3f84e482	1.0382235
15	0x3f86c3ba	1.0528481
16	0x3f832022	1.0244181
17	0x3f5034b4	0.8133042
18	0x3f5ee27d	0.87064344
19	0x3f69291c	0.9107835
20	0x3f721077	0.94556373
21	0x3f89cd49	1.0765773
22	0x3f660cc8	0.8986325
23	0x3f5f74fc	0.8728788
24	0x3f889990	1.0671864
25	0x3f7d9e53	0.9906971
26	0x3f8bc8fa	1.0920708
27	0x3f712ee2	0.9421216
28	0x3f6efd0e	0.9335488
29	0x3f4f945f	0.8108577
30	0x3f5da391	0.8657771
31	0x3f7e5376	0.993461

network.0.bn1.bias f4 [32]
0	0xbe3ee55b	-0.1864218
1	0xbe45bbc8	-0.19309914
2	0xbd4b1a73	-0.04958577
3	0xbc8993f6	-0.016794186
4	0xbd272b66	-0.040812872
5	0x3e532669	0.20620121
6	0xbe10d62e	-0.14144203
7	0x3da5bbed	0.080924846
8	0xbe347445	-0.17622478
9	0xbe1854b1	-0.14876057
10	0xbde8c942	-0.11366512
11	0x3e36258a	0.17787758
12	0xbdb3e998	-0.08784789
13	0x3d25814a	0.040406503
14	0xbdff226b	-0.124577366
15	0xbd1a9f27	-0.037749436
16	0x3cb266fc	0.021777622
17	0xbe46d3cc	-0.19416732
18	0xbeace036	-0.3376481
19	0xbec886e4	-0.39165413
20	0xbe92b3b8	-0.2865274
21	0xbe0c7fc3	-0.13720612
22	0xbe79d3e2	-0.24397233
23	0xbe38dab1	-0.18052174
24	0xbde422e4	-0.11139467
25	0xbe9208bf	-0.28522298
26	0xbe995f30	-0.29955435
27	0xbe49fe7b	-0.19725983
28	0xbd806276	-0.0626878
29	0xbec1d744	-0.37859547
30	0xbdc1cfe7	-0.09463482
31	0xbdb4b2ba	-0.08823152

network.0.bn1.running_mean f4 [32]
0	0xbe256a18	-0.16153753
1	0x3cf3aabb	0.029744497
2	0xbdd652bd	-0.10465
3	0xbceacbc4	-0.028661616
4	0xbd96b523	-0.07358768
5	0x3e230af9	0.15922154
6	0x3d7550a3	0.059891354
7	0xbd87386d	-0.06602559
8	0x3d0879ef	0.03331941
9	0xbd669346	-0.056292795
10	0x3d271e5f	0.04080045
11	0x3e04450f	0.12916969
12	0x3db0cf88	0.086333334
13	0xbddcc21c	-0.10779211
14	0x3e441420	0.19148302
15	0xbd15f4d4	-0.03661044
16	0xbd6d7da8	-0.057981163
17	0x3dd4f8bd	0.103990056
18	0x3e272ff0	0.1632688
19	0x3e1125a3	0.14174514
20	0x3d9d0842	0.07667591
21	0xbdbf2851	-0.093338616
22	0x3dfebc6d	0.12438283
23	0x3dee0eee	0.11623941
24	0xbe3a7e4a	-0.18212238
25	0x3dc77bbb	0.097403966
26	0xbe3b2042	-0.18274024
27	0x3d3b5284	0.04573299
28	0x3d0d5a30	0.034509838
29	0xbdac23a1	-0.08405233
30	0xbd2e5e3a	-0.04257033
31	0x3dd1794c	0.10228214

network.0.bn1.running_var f4 [32]
0	0x3d012870	0.031532705
1	0x3c477bac	0.012175482
2	0x3ea21c5e	0.31662267
3	0x3d28763c	0.041128382
4	0x3dc76b1b	0.097372256
5	0x3b59fecc	0.0033263443
6	0x3e08dc09	0.13365187
7	0x3d4ca67a	0.049963452
8	0x3e1d6db2	0.15373877
9	0x3e81bb56	0.25338238
10	0x3daba612	0.08381285
11	0x3b8436b0	0.0040348396
12	0x3e00c3c0	0.12574673
13	0x3e246041	0.16052343
14	0x3dd3d268	0.10342866
15	0x3e65bb49	0.22434725
16	0x3d1b8ccf	0.037976082
17	0x3dce2279	0.10065169
18	0x3dfc217c	0.12311074
19	0x3de8ceb4	0.113675505
20	0x3d679dff	0.05654716
21	0x3d2ebd34	0.042660907
22	0x3e844bff	0.2583923
23	0x3d0ed4a6	0.034870766
24	0x3e60195d	0.21884675
25	0x3d7c9c5c	0.061672553
26	0x3c5612a2	0.013065966
27	0x3b86907a	0.0041065784
28	0x3e5af796	0.21383509
29	0x3d98becf	0.07458269
30	0x3e811cf0	0.2521739
31	0x3e732faa	0.23748651

network.0.bn2.weight f4 [32]
0	0x3f58fa07	0.8475651
1	0x3f61955d	0.88118535
2	0x3f5a21d8	0.8520789
3	0x3f5fcbf2	0.8742057
4	0x3f5c61af	0.86086553
5	0x3f30ae14	0.6901562
6	0x3f48e280	0.7847061
7	0x3f686cd7	0.90791076
8	0x3f3fb839	0.74890476
9	0x3f3c61e2	0.7358686
10	0x3f4bd717	0.79625076
11	0x3f57a5e7	0.8423752
12	0x3f2eb585	0.68245727
13	0x3f511c33	0.81683654
14	0x3f60dbdb	0.8783547
15	0x3f40f00c	0.7536628
16	0x3f485281	0.7825089
17	0x3f330acf	0.6993837
18	0x3f647968	0.8924775
19	0x3f468a9a	0.7755524
20	0x3f495c58	0.7865653
21	0x3f605004	0.87622094
22	0x3f1a11ba	0.601833
23	0x3f275eeb	0.6537921
24	0x3f5ce535	0.8628724
25	0x3f57c097	0.84278244
26	0x3f5cef24	0.863024
27	0x3f473687	0.7781758
28	0x3f2ee500	0.68318176
29	0x3f4ef30d	0.80839616
30	0x3f515a2b	0.8177821
31	0x3f47ff7e	0.78124225

network.0.bn2.bias f4 [32]
0	0xbd139a11	-0.0360356
1	0x3db6a630	0.089184165
2	0x3d825be0	0.0636518
3	0x3d4f90ec	0.050675318
4	0x3d8f0fd8	0.06985444
5	0xbe346966	-0.17618331
6	0xbcb41f46	-0.021987569
7	0xbdade162	-0.08490254
8	0x3a96dae8	0.0011509331
9	0x3d4ee0e8	0.050507456
10	0xbd8907ac	-0.066909164
11	0xbbaf6d99	-0.005353641
12	0x3da07e7b	0.07836624
13	0xbdadcc70	-0.08486259
14	0xbd588a29	-0.052866135
15	0xbdf2991d	-0.1184561
16	0xbd6cda0f	-0.057825144
17	0x3ca95231	0.020669075
18	0x3d0c9988	0.034326106
19	0x3c884be1	0.016637744
20	0xbe0aacb8	-0.1354245
21	0x3dcf6cbe	0.10128163
22	0xbcbb61a3	-0.022873705
23	0xbcd1a8b8	-0.025593147
24	0xbd5ee418	-0.054416746
25	0xbb44b6cb	-0.003001618
26	0xbd2d76c7	-0.042349603
27	0xbd4d9206	-0.050188087
28	0x3d715a78	0.05892417
29	0x3d5ac643	0.053411733
30	0x3cd44465	0.02591152
31	0xbd8cd118	-0.06875819

network.0.bn2.running_mean f4 [32]
0	0x3edd9d78	0.43284202
1	0xbe6346b8	-0.22194946
2	0xbeef99ac	-0.4679693
3	0xbeef3d67	-0.46726534
4	0xbf2545ca	-0.64559615
5	0xbe97a6f8	-0.29619575
6	0xbf05d368	-0.52275705
7	0x3b9255e3	0.004465805
8	0xbefab644	-0.48967183
9	0xbd93764d	-0.072002985
10	0xbe9c77fb	-0.30560288
11	0xbe53000e	-0.2060549
12	0xbee0c5e3	-0.43900976
13	0xbeda1437	-0.42593548
14	0xbe9eaf9b	-0.3099335
15	0xbe20d098	-0.15704572
16	0x3f02a340	0.5103035
17	0xbede1b5d	-0.43380252
18	0xbe474505	-0.19459923
19	0xbec6d5c9	-0.3883498
20	0x3d888bce	0.06667291
21	0xbf106dca	-0.56417525
22	0x3d8026d9	0.062574096
23	0xbe564824	-0.20925957
24	0x3e8028c6	0.25031108
25	0xbed26cc3	-0.41098604
26	0xbedd0fa8	-0.43176007
27	0x3e99c62e	0.30034012
28	0xbebe68fe	-0.37189478
29	0xbe993c14	-0.29928648
30	0xbe916b0d	-0.28401986
31	0xbe342672	-0.1759279

network.0.bn2.running_var f4 [32]
0	0x3f167399	0.5877014
1	0x3e673738	0.22579658
2	0x3ec00e74	0.37511027
3	0x3f0dc318	0.55375814
4	0x3f6524af	0.895091
5	0x3eb10285	0.34572235
6	0x3e98304d	0.2972435
7	0x3e333d5a	0.17503873
8	0x3f1069b6	0.564113
9	0x3e4bcc43	0.19902138
10	0x3ea65f6f	0.32494685
11	0x3ee032fc	0.43788898
12	0x3eee216f	0.46509883
13	0x3e5d56a5	0.21615084
14	0x3f526daf	0.82198614
15	0x3ebe68e8	0.37189412
16	0x3eb7d52b	0.35904822
17	0x3f5b6648	0.85702944
18	0x3f30c70b	0.69053715
19	0x3f0aa1f6	0.5415338
20	0x3dd8d92c	0.10588297
21	0x3f18608b	0.5952231
22	0x3edf94a8	0.43668103
23	0x3dfe3caf	0.12413918
24	0x3edd9fcc	0.43285978
25	0x3eaa61a3	0.33277616
26	0x3e67737d	0.22602649
27	0x3e5ba67c	0.21450227
28	0x3f179c24	0.59222627
29	0x3ed57c2a	0.41696292
30	0x3eda7816	0.42669743
31	0x3ea721a8	0.32642865

network.1.conv1.weight f4 [64, 32, 3]
0	0xbd87aeff	-0.06625175
1	0xbd7a2fe0	-0.061080813
2	0xbdcf19a2	-0.10112311
3	0x3d05d81c	0.0326768
4	0x3d062167	0.0327467
5	0xbdaf32e4	-0.085546285
6	0xbd85fa1a	-0.06541844
7	0xbe24b0dc	-0.16083091
8	0xbdaa3216	-0.083103344
9	0x3dba70fa	0.0910358
10	0x3cf5a002	0.029983524
11	0x3db9332e	0.09042965
12	0xbd4ac94d	-0.04950838
13	0xbd951d54	-0.072809845
14	0xbd12add4	-0.035810307
15	0x3b02a280	0.0019933283
16	0xbd77a156	-0.060456596
17	0x3c752550	0.014962509
18	0xbd85f672	-0.06541146
19	0xbd2dde3a	-0.04244826
20	0x3dbf76f4	0.093488604
21	0x3c8d371c	0.017238192
22	0x3e4f8ed0	0.20269322
23	0xbd94de41	-0.07268954
24	0xbc6bfc30	-0.014403388
25	0xbdd58cb3	-0.10427227
26	0xbc398610	-0.011323467
27	0xbd264c29	-0.040599976
28	0xbd90cc9e	-0.07070278
29	0xbdc9e768	-0.0985859
30	0xbd1b0232	-0.03784389
31	0x3d3df441	0.046375517
32	0xbc9315f8	-0.017954811
33	0xbdc2ac34	-0.095055014
34	0x3d4e0a31	0.050302688
35	0x3d9afce8	0.07567769
36	0xbd7c0a65	-0.06153335
37	0x3d2c1d22	0.04201997
38	0x3d8acb12	0.06777014
39	0xbdc67f9b	-0.096923076
40	0xbdaac90e	-0.083391294
41	0x3d67f59c	0.056630716
42	0xbb047a60	-0.0020214543
43	0x3d9d57a9	0.076827355
44	0xbd2dd8bb	-0.04244302
45	0x3c9797a8	0.018504933
46	0x3dabbadf	0.08385252
47	0xbccc8c48	-0.024969235
48	0xbd0707fe	-0.032966606
49	0xbdaba67c	-0.08381364
50	0xbc81041c	-0.01574903
51	0x3d847366	0.06467323
52	0xbdd1cc0c	-0.10243997
53	0xbc012bb8	-0.0078839585
54	0x3d985d3e	0.074396595
55	0xbcfe9ba0	-0.031080067
56	0xbd1a7472	-0.037708707
57	0xbcfc3128	-0.030785158
58	0xbdb151c5	-0.086581744
59	0x3c482338	0.012215428
60	0xbdc93f91	-0.098265775
61	0x3da4de19	0.08050174
62	0xbcd328f8	-0.025776371
63	0xbc54e670	-0.012994394
64	0xbd73e449	-0.05954388
65	0x3d6988fc	0.057015404
66	0xbd81d678	-0.06339735
67	0xbdaf0790	-0.08546364
68	0xbd97325c	-0.07382652
69	0xbd99565e	-0.07487176
70	0xbd0f1bf8	-0.034938782
71	0x3da516f8	0.080610216
72	0xbda1b416	-0.07895677
73	0xbd0e9ab8	-0.03481552
74	0xbdaa657c	-0.08320138
75	0xbd5202ce	-0.051272206
76	0xbd81fb7f	-0.06346797
77	0xbd7ee906	-0.062233947
78	0x3a8d6680	0.0010787994
79	0x3dcbd896	0.0995342
80	0xbc8e4064	-0.017364688
81	0x3d345ec4	0.044035688
82	0x3cf2c02a	0.029632647
83	0x3dc9eb00	0.09859276
84	0xbbaabe00	-0.005210638
85	0x3e4eb8df	0.2018771
86	0x3d9c73ca	0.076392725
87	0x3d47d8b0	0.048790634
88	0x3d8a793c	0.06761405
89	0xbd8bfbb1	-0.06835116
90	0xbd8bfe0a	-0.068355635
91	0x396dfbd4	0.00022695895
92	0x3d17cb0c	0.037058875
93	0x3dbca142	0.09210445
94	0xbc32ed75	-0.010920872
95	0xbc99b2b0	-0.018761963
96	0x3d8f4b06	0.069967315
97	0x3de443d1	0.111457475
98	0x3dc43c50	0.09581816
99	0xbd553bf7	-0.05205914
100	0x3dbdcb97	0.09267347
101	0x3b9080f0	0.004409902
102	0x3d5ef670	0.05443424
103	0xbe0088a4	-0.12552124
104	0xbcea0924	-0.028568812
105	0x3d97cd00	0.074121475
106	0xbb624606	-0.00345266
107	0x3d93c660	0.072155714
108	0xbd0d9b5a	-0.034571983
109	0xbe5d4f68	-0.21612322
110	0xbd8eb3a9	-0.06967861
111	0xbd6b09d1	-0.05738241
112	0x3cee3ac3	0.029080754
113	0x3d4f2bc0	0.050578833
114	0x3ce0bac0	0.0274328
115	0x3a33c18e	0.000685715
116	0x3dbf9706	0.09354977
117	0x3cee08e8	0.029056981
118	0x3c996ae8	0.018727735
119	0xbd302525	-0.043004174
120	0x3d90b6f2	0.07066144
121	0xbda53642	-0.080669895
122	0x3d985cd4	0.074395806
123	0xbd632c15	-0.05546196
124	0x3db40b7a	0.087912515
125	0xbd173bec	-0.03692238
126	0x3d87cbc0	0.06630659
127	0xbe22c0a4	-0.15893799
128	0xbca30530	-0.019899935
129	0xbce1accc	-0.027548216
130	0xbc8b52c0	-0.017007232
131	0xbd4d5785	-0.050132293
132	0xbcea9ca0	-0.028639138
133	0x3d657664	0.05602111
134	0x3d945daa	0.072444275
135	0xbc896490	-0.016771585
136	0x3d2008c6	0.039070867
137	0xbd46ef8c	-0.048568293
138	0xbd573768	-0.052543074
139	0x3c8ca3a7	0.01716788
140	0xbc975c5c	-0.018476658
141	0x3d04c900	0.03241825
142	0x3e19707f	0.1498432
143	0x3d0f2288	0.03494504
144	0xbdaee778	-0.08540243
145	0xbd3233e4	-0.043506518
146	0xbca61a14	-0.020276107
147	0xbdbe55f2	-0.092937365
148	0x3c1a57d2	0.009420352
149	0x3db6751e	0.08909057
150	0x3d4f9fcc	0.050689504
151	0xbdb11b44	-0.08647779
152	0xbbfe9c80	-0.007770121
153	0xbd43c4b7	-0.047795024
154	0xbb815c79	-0.003947791
155	0x3db7522e	0.089512214
156	0xbd56ed4c	-0.052472398
157	0x3badc778	0.0053033195
158	0xbd995d61	-0.07488514
159	0xbce4a3a8	-0.027910069
160	0xbdaab715	-0.083357014
161	0xbd9dd54e	-0.077067
162	0x3ce32a58	0.027730152
163	0xbd3d2326	-0.0461761
164	0xbd2ac609	-0.041692767
165	0x3d917574	0.071024805
166	0x3e12e2d1	0.14344336
167	0xbc02bd00	-0.007979631
168	0xbd9565c8	-0.07294804
169	0x3d3afe51	0.04565269
170	0xbccd78b4	-0.02508197
171	0xbd555516	-0.052083097
172	0x3db32718	0.08747691
173	0xbd950190	-0.07275689
174	0x3d7ba2d4	0.061434582
175	0x3d547a75	0.051874597
176	0xbcfe4c9c	-0.03104239
177	0x3daa6278	0.08319563
178	0x3da0363c	0.078228444
179	0xbb69f100	-0.0035696626
180	0xbd8dabd9	-0.06917543
181	0x3c69792f	0.014250084
182	0x3d06ca1c	0.03290759
183	0x3db51cc0	0.08843374
184	0x3d07f6ac	0.03319423
185	0xbd2dbba4	-0.042415276
186	0xbdcc39e9	-0.09971983
187	0x3daaf855	0.08348147
188	0x3dcc0312	0.09961523
189	0x3d8fe872	0.07026757
190	0x3d2f042b	0.042728584
191	0x3d95bd56	0.073115036
192	0xbcfd7a14	-0.030942
193	0x3e406b83	0.18791012
194	0x3d747024	0.059677258
195	0xbdaa6a5c	-0.08321068
196	0x3e2e44ec	0.17018479
197	0x3d26e4c4	0.04074551
198	0xbd7b50e2	-0.061356433
199	0x3d4135ec	0.047170565
200	0x3da32de2	0.07967736
201	0x3daeb1b8	0.08529991
202	0xbd0acb1b	-0.033885103
203	0xbd5fabbf	-0.05460715
204	0xbd64741c	-0.055774793
205	0xbe332d76	-0.1749781
206	0xbca61af8	-0.020276532
207	0x3da622a6	0.081120774
208	0x3dcdbf85	0.10046295
209	0x3c010a78	0.007876031
210	0xbdab1fc3	-0.083556674
211	0x3d41076a	0.04712621
212	0x3dbb0dc4	0.09133485
213	0xbcd2003c	-0.025634877
214	0x3d1660cf	0.036713418
215	0xbcc3959c	-0.02387505
216	0x3c6f9308	0.014622457
217	0xbd2266f5	-0.03964897
218	0x3d5f4088	0.0545049
219	0x3d32b140	0.04362607
220	0x3d6403bd	0.055667628
221	0xbd1adcf4	-0.037808374
222	0xbd465c01	-0.048427586
223	0x3d11ca0a	0.03559307
224	0x3d77f0c8	0.06053236
225	0x3ceda470	0.029009074
226	0x3b2e6cf8	0.0026615243
227	0x3cd0de00	0.025496483
228	0x3dc9aa62	0.09846951
229	0x3d9a74b1	0.07541788
230	0xbd507e0a	-0.05090145
231	0x3d21b684	0.0394807
232	0xbd2f2489	-0.042759452
233	0xbb6d82e0	-0.0036241338
234	0xbd86a086	-0.06573586
235	0x3d021c2d	0.03176515
236	0x3bae78f0	0.0053244755
237	0xbd7d8921	-0.061898354
238	0x3de4c25b	0.11169883
239	0x3dc10d2a	0.09426339
240	0xbdaed5a7	-0.08536845
241	0x3d8f1cdf	0.069879286
242	0xbd9064db	-0.07050487
243	0xbca62e08	-0.020285621
244	0x3e1e28d3	0.1544526
245	0xbaead480	-0.0017916113
246	0x3cfd5ce0	0.030928075
247	0xbd873859	-0.06602544
248	0x3dc779ce	0.09740029
249	0xbd444499	-0.047916982
250	0x3c4e13b7	0.012577943
251	0x3c2ba540	0.01047641
252	0x3d8e61be	0.069522366
253	0x3c74015d	0.014892903
254	0x3d7c0c54	0.061535195
255	0x3cd76c08	0.02629663

network.1.conv1.bias f4 [64]
0	0x3d2f64fe	0.042820923
1	0xbd3f0344	-0.046633974
2	0xbdd5e4e3	-0.10444047
3	0x3d045033	0.032303046
4	0x3d2d3623	0.042287957
5	0xbe1698c7	-0.14706717
6	0x3dd91e0b	0.10601433
7	0xbd23f4ed	-0.0400285
8	0x3d08a6c5	0.03336217
9	0x3d7b2a09	0.061319385
10	0x3d71b7c3	0.05901314
11	0x3c182d87	0.009288198
12	0xbdc630e0	-0.09677291
13	0xbdd5c3da	-0.10437746
14	0x3d1e5ea4	0.038664475
15	0x3c7ebddf	0.0155481985
16	0x3d8dcf78	0.06924337
17	0x3c09402a	0.008377114
18	0xbd681eb4	-0.056669906
19	0xbb82b4c0	-0.0039888322
20	0xbd95dbbd	-0.073173024
21	0xbd623f34	-0.055236056
22	0x3a100628	0.00054940814
23	0xbc8708d0	-0.016483694
24	0xbd770979	-0.06031177
25	0x3c957905	0.018246183
26	0x3d9ddd19	0.07708187
27	0xbdce2d39	-0.10067219
28	0x3d7766b4	0.06040068
29	0x3d85afc2	0.06527664
30	0xbc4cc6f5	-0.012498607
31	0xbdb7dced	-0.08977685
32	0xbd8bd79d	-0.06828234
33	0xbc2ad30e	-0.010426296
34	0xbd829044	-0.06375173
35	0xbd559205	-0.05214121
36	0x3ba4f4f3	0.005034083
37	0x3d790f56	0.06080564
38	0x3df53855	0.11973635
39	0xbd97eb7e	-0.074179634
40	0xbc9fe807	-0.019519819
41	0x3dbd1fe6	0.092346
42	0xbbb06dd8	-0.005384188
43	0xbd4592ec	-0.04823582
44	0x3c9afc98	0.018919274
45	0x3d438662	0.04773558
46	0xbcc53cc2	-0.024076823
47	0xbdbbc085	-0.091675796
48	0xbd1b4d61	-0.03791559
49	0x3da70c04	0.08156589
50	0xbd7344ef	-0.059391912
51	0x3db30359	0.08740873
52	0x3d4cfc03	0.050045025
53	0x3a9caba3	0.0011953007
54	0x3d3aab8b	0.045573752
55	0x3bc08aac	0.005875906
56	0xbdb7b8be	-0.08970784
57	0xbd416e6a	-0.04722444
58	0xbd2c3ba7	-0.042049076
59	0xbcf8a6d6	-0.030352991
60	0xbd948e45	-0.07253698
61	0x3bac9016	0.0052662
62	0xbc10f832	-0.008848237
63	0x3dcb5e31	0.09930075

network.1.conv2.weight f4 [64, 64, 3]
0	0x3b84f870	0.0040579364
1	0xbc5cb359	-0.013470494
2	0x3cd239cc	0.025662325
3	0xbca724f2	-0.02040336
4	0xbd774261	-0.06036604
5	0xbd8b08b1	-0.06788767
6	0xbd8ff376	-0.07028858
7	0x3d7aab23	0.061198365
8	0xbd0bc981	-0.034127716
9	0x3ca3aae8	0.019978955
10	0x3d70a373	0.058749627
11	0x3d668cb4	0.05628653
12	0xbc105918	-0.008810304
13	0xbd68d64f	-0.056845006
14	0x3d4c0508	0.049809486
15	0x3c488340	0.012238324
16	0x3e1a35ce	0.15059587
17	0xbd1f9fce	-0.03897076
18	0xbd55a852	-0.052162476
19	0xbd12ee15	-0.035871584
20	0x3d52b7c4	0.051444784
21	0xbcdfda7c	-0.027325861
22	0x3c84c84f	0.016208796
23	0xbd83724d	-0.064182855
24	0x3ba58050	0.0050506964
25	0xbe1b320d	-0.15155812
26	0x3d271400	0.040790558
27	0xbd927e67	-0.071530156
28	0xbd79fc77	-0.061031785
29	0x3d89e608	0.06733328
30	0xbcc84a84	-0.024449594
31	0x3c0c9408	0.008580215
32	0x3d855522	0.065103784
33	0xbd1585cd	-0.036504555
34	0x3d3b52b4	0.04573317
35	0x3d2534b6	0.040333472
36	0x3c9ed838	0.01939021
37	0xbe00cbf3	-0.125778
38	0x3d86246c	0.06549916
39	0x3d0dbfa0	0.034606576
40	0xbd2d49ef	-0.042306837
41	0xbd28b5de	-0.041189067
42	0xbc885b1e	-0.01664501
43	0x3c9497b0	0.018138736
44	0x3cdf8b40	0.02728808
45	0x3c183fe8	0.00929258
46	0x3db185c5	0.08668093
47	0x3d9308b8	0.07179397
48	0x3c7342e0	0.014847487
49	0x3cf1e27e	0.029526945
50	0x3d281ba2	0.041041978
51	0x3c6a6560	0.014306396
52	0xbda8274c	-0.0821062
53	0x3d84e3f6	0.064887926
54	0x3d4c1396	0.049823366
55	0x3cd778bd	0.02630269
56	0xbce60b3e	-0.028081533
57	0xbd0d5434	-0.03450413
58	0x3c8f0366	0.017457675
59	0xbd778ae7	-0.060435202
60	0xbbf04450	-0.0073323622
61	0xbc846211	-0.016160043
62	0x3c2d3bd0	0.010573342
63	0xbcd121a2	-0.025528733
64	0xbd75153f	-0.059834715
65	0xbd62871e	-0.05530464
66	0xbd3de0c7	-0.046356943
67	0xbdb39373	-0.08768358
68	0xbd2bc03c	-0.041931376
69	0x3c11bae8	0.00889466
70	0x3d85afda	0.06527682
71	0x3c976598	0.01848106
72	0x3d624a54	0.055246666
73	0xbda90280	-0.0825243
74	0x3af603c0	0.0018769428
75	0xbd9130dd	-0.07089398
76	0x3ccc7082	0.024955992
77	0xbd59c30e	-0.053164534
78	0x3d8ab7bc	0.06773326
79	0xbd021e3d	-0.03176712
80	0x3cca18c4	0.024670012
81	0xbd30d30e	-0.043170027
82	0xbc41218b	-0.011787782
83	0xb9c55b00	-0.00037642568
84	0xbc173c88	-0.00923074
85	0x3ca54234	0.02017317
86	0x3d3e117a	0.046403386
87	0xbc556f50	-0.013027027
88	0xbd90acfe	-0.07064246
89	0xbcb22a86	-0.021748792
90	0xbd576a10	-0.052591383
91	0xbe3aa2ae	-0.1822612
92	0x3d8484a0	0.06470609
93	0x3d8caff4	0.06869498
94	0xbcca2ee9	-0.024680572
95	0x3bebad40	0.007192284
96	0x3c3fed40	0.01171428
97	0x3d3a0f8b	0.04542498
98	0x3c2501e8	0.010071255
99	0x3b5c2d00	0.0033596158
100	0x3c467b17	0.012114308
101	0x3c795d28	0.015219964
102	0xbd932a20	-0.07185769
103	0xbd1378c3	-0.03600384
104	0xbc090f50	-0.008365467
105	0xbd4d0718	-0.050055593
106	0xbc8c8dc6	-0.017157447
107	0xbc48b33c	-0.012249764
108	0x3d240154	0.04004033
109	0xbca08311	-0.019593747
110	0xbccd6804	-0.025074013
111	0xbba71dc0	-0.005099982
112	0x3d1a74eb	0.037709158
113	0x3c7fc7d0	0.015611604
114	0x3d49057e	0.049077503
115	0xbd821af0	-0.06352794
116	0xbd8443c9	-0.064582415
117	0xbd090dbb	-0.03346036
118	0xbd29d4e1	-0.041462783
119	0xbc8f3090	-0.017479211
120	0xbd216792	-0.039405413
121	0x3dfda724	0.12385395
122	0xbd886cff	-0.06661414
123	0x3af02bc0	0.0018323585
124	0x3ddecf25	0.108793534
125	0xbc9f7fa8	-0.01947005
126	0x3d0034e2	0.031300433
127	0xbcf72f0a	-0.030173797
128	0xbd2fb748	-0.0428994
129	0xbd20bc44	-0.039242044
130	0xbbcb6bef	-0.006207935
131	0xbd904fa4	-0.0704644
132	0x3d383cde	0.044979922
133	0x3d6e01f8	0.058107346
134	0xbd17d984	-0.037072673
135	0x3b69c640	0.0035671145
136	0x3cabb991	0.020962508
137	0x3ca76528	0.020433977
138	0xbd24130d	-0.04005723
139	0xbd153b8a	-0.036433734
140	0x3d8fe0a0	0.07025266
141	0x3d2c22e8	0.042025477
142	0x3dd1f1e4	0.10251215
143	0x3d4f82a6	0.050661705
144	0xbbaff3f0	-0.005369656
145	0xbcd7cb19	-0.026341962
146	0xbb17b320	-0.0023147538
147	0xb9eac200	-0.000447765
148	0x3c7064d7	0.01467248
149	0x3d66872c	0.056281254
150	0xbc7b61a0	-0.0153431
151	0x3c50895f	0.012728064
152	0xbd6bb6ac	-0.057547256
153	0x3ccace2c	0.024756514
154	0xbcb02795	-0.02150325
155	0xbc858024	-0.016296454
156	0xbbd377a0	-0.0064534694
157	0x3cede39a	0.029039193
158	0x3b4110a0	0.0029459372
159	0x3c4e0710	0.012574926
160	0xbe127aad	-0.1430461
161	0xbd5f5b08	-0.054530174
162	0x3cd4ea18	0.02599053
163	0xbd8cfd0a	-0.06884201
164	0xbd7edbda	-0.062221386
165	0xbcf3fdd4	-0.02978412
166	0xbe25b9ee	-0.16184208
167	0x3c6c4048	0.014419623
168	0x3bafa0d0	0.0053597465
169	0x3c2648ae	0.010149164
170	0xbd230163	-0.039796244
171	0xbd18e0ef	-0.03732389
172	0x3caf32ea	0.021386582
173	0xbc9b58ca	-0.018963236
174	0x3d665da8	0.05624166
175	0x3d881f89	0.0664664
176	0xbacd8980	-0.0015681237
177	0xbce2d12a	-0.027687628
178	0x3df6e15e	0.12054704
179	0xbd0a5f0e	-0.033782057
180	0x3cedbbd8	0.029020235
181	0x3d71c738	0.05902788
182	0xbd67dfa7	-0.056609776
183	0xbd82f518	-0.06394404
184	0x3d2fbf09	0.042906795
185	0x3d0dd716	0.03462895
186	0xbd230d83	-0.039807808
187	0x3d7ffd90	0.062497675
188	0x3c328770	0.010896549
189	0x3c783d28	0.0151513
190	0x3d7c8058	0.061645836
191	0x3b256020	0.0025234297
192	0x3d4cd5ec	0.0500087
193	0x3d823ef1	0.06359661
194	0x3c61e220	0.013786823
195	0xbd6b1606	-0.05739405
196	0x3d11e0f6	0.03561493
197	0xbceb69d8	-0.028736994
198	0x3d4ee0f2	0.050507493
199	0xbc31fde0	-0.010863751
200	0xbc5909fc	-0.013247009
201	0x3ce48b18	0.027898356
202	0xbe1f5c4d	-0.15562554
203	0x3c4c1760	0.012456745
204	0xbb6bfea0	-0.0036009923
205	0x3d638ffe	0.055557244
206	0x3cd02b90	0.025411397
207	0x3d8ff0b0	0.07028329
208	0xbc15de02	-0.009147169
209	0x3d9054d6	0.07047431
210	0xbc58fbd8	-0.013243638
211	0x3daef5f0	0.085430026
212	0x3c850a90	0.016240388
213	0x3bc0d8f0	0.005885236
214	0xbb9c5839	-0.004771259
215	0xbd1bc522	-0.038029797
216	0xbd9159a9	-0.070971794
217	0xbd191d39	-0.037381385
218	0xbbd3bb30	-0.0064615235
219	0x3d78af64	0.06071414
220	0xbd0ee554	-0.034886673
221	0x3c4e28f0	0.012583002
222	0xbd8f0b60	-0.069845915
223	0x3dc9a7f9	0.09846491
224	0x3d4b83f4	0.049686387
225	0xbd04e25a	-0.03244243
226	0xbaf307ff	-0.0018541812
227	0xbd764b40	-0.060130358
228	0xbd15743c	-0.036487803
229	0xbba55a3c	-0.005046157
230	0xbd860422	-0.06543757
231	0xbb9077c0	-0.0044088066
232	0x3d1b0ea1	0.037855748
233	0x3cac1610	0.021006614
234	0x3d8a513a	0.06753774
235	0x3dd1d5c3	0.1024585
236	0xbd873b71	-0.066031344
237	0xbcb99266	-0.022652816
238	0x3dc8d9d7	0.09807175
239	0xbd8ddc6f	-0.0692681
240	0xbb9240b0	-0.0044632778
241	0x3df7b46e	0.12094961
242	0xbd463622	-0.04839147
243	0x3d7d91e0	0.061906695
244	0xbd6390c1	-0.05555797
245	0xbd58d899	-0.05294094
246	0xbd6063e6	-0.05478277
247	0xbc045757	-0.008077464
248	0x3cc56d54	0.024099983
249	0x3caa4c0c	0.020788215
250	0x3d858dab	0.06521162
251	0x3d814592	0.063120976
252	0xbd1e6994	-0.038674906
253	0xbb057bf9	-0.0020368083
254	0x3cc69678	0.024241671
255	0xbcbec388	-0.023286596

network.1.conv2.bias f4 [64]
0	0x3cd8bf53	0.026458418
1	0x3c4acbee	0.012377722
2	0x3d6eae1a	0.058271505
3	0xbcdf583d	-0.027263755
4	0x3d9ecef3	0.07754316
5	0xbd6f86ce	-0.05847817
6	0x3d1e866e	0.03870242
7	0xbd805872	-0.062668696
8	0xbd61637a	-0.05502651
9	0x3d5b03e3	0.053470504
10	0x3d7f20c8	0.062287122
11	0x3b7cfdee	0.0038603502
12	0xb87281c0	-5.7818135e-05
13	0xbd4f14b8	-0.05055687
14	0xbd394bae	-0.04523819
15	0xbbf71287	-0.0075400504
16	0xbcd2ec17	-0.025747342
17	0x3d8b26d6	0.06794517
18	0x3ccd3b84	0.025052793
19	0xbc62d1b0	-0.013843939
20	0x3d07e66e	0.03317874
21	0xbd40f505	-0.04710867
22	0x3c4b8f61	0.012424321
23	0x3d3fb3ca	0.04680232
24	0xbc88749e	-0.01665717
25	0x3ccd9172	0.025093768
26	0xbd7c8e91	-0.0616594
27	0x3d7697c8	0.060203344
28	0x3d8788b8	0.06617874
29	0x3d4ce3ca	0.050021924
30	0x3cba7642	0.022761468
31	0x3d41b593	0.047292303
32	0x3d59b178	0.053147763
33	0xbbea6cc7	-0.0071540806
34	0x3c8de3ce	0.01732054
35	0xbd758195	-0.059938032
36	0x3d400c05	0.046886463
37	0x3b5752ed	0.0032855824
38	0xbd87664e	-0.0661131
39	0x3d4428e1	0.047890548
40	0x3bcfa042	0.006336243
41	0x3b4bac4b	0.0031078036
42	0x3c355523	0.011067661
43	0x3d70ef4c	0.05882196
44	0x3cefb10b	0.029259225
45	0x3d94e8cb	0.07270964
46	0xbd2d58ce	-0.04232102
47	0xbd697afc	-0.057002053
48	0x3c8c9930	0.01716289
49	0xbcce8889	-0.02521159
50	0xbd789dcc	-0.06069736
51	0x3c08632f	0.008324428
52	0xbc4817db	-0.012212719
53	0xbc62622a	-0.013817349
54	0x3ce8e5ea	0.028429944
55	0xbc350abc	-0.011049923
56	0x3d6af5c4	0.057363287
57	0xbc512e28	-0.012767352
58	0xbcb3b18c	-0.021935247
59	0x3d97dc8b	0.07415112
60	0xbd7f25f6	-0.06229206
61	0x3c063f27	0.008193768
62	0xbcfe7b62	-0.031064693
63	0xbd606716	-0.05478581
